app/src/main/assets/fix_model.tflite (tflite, 978792 bytes, 30 tensors)

arith.constant f4 [32]
000000 f1 03 21 3d 7d 64 96 3c d5 d5 25 3d 5d 55 fc 3c
       0.0393104 0.018358463 0.04048713 0.030802423
000010 81 8b 7f 3c 23 c5 42 3d 44 1d 81 3c 64 ed ce 3c
       0.015597225 0.047551285 0.015761025 0.025259681
000020 f4 73 e0 3c 44 45 39 3d 55 0c 1a 3d 50 40 30 3d
       0.02739904 0.045232072 0.037609417 0.043030083
000030 a1 df 97 3c 06 71 8d 3c 86 01 16 3c 1b 4f 02 3c
       0.018539252 0.017265808 0.009155637 0.0079534305
000040 60 42 e2 3b 6e 95 a3 3d 6f b4 bb be df 94 c0 3c
       0.006904885 0.07987486 -0.36661097 0.023508487
000050 ed f5 a2 bb 7b 3e c4 b9 64 01 24 3c d4 1b df 3c
       -0.0049731643 -0.00037430585 0.010010097 0.02723495
000060 3b 6b a1 3d df 87 91 3c 81 db b8 3c 71 19 e0 3d
       0.07881781 0.017764984 0.022565605 0.109423526
000070 ee 3e 0b be 83 4e 95 bc 05 52 86 bd 67 bd 9a 3c
       -0.13598225 -0.018225914 -0.06558613 0.018889142

arith.constant1 f4 [32, 3, 3, 1]
000000 e2 1f ea 3d 6c a7 6f 3e 9c a1 ce 3e e1 b3 57 3d
       0.114318624 0.2340371 0.40357673 0.05266178
000010 12 8b 7e be 72 3c 04 3e 69 c7 53 bd 7f 08 fe be
       -0.24857739 0.12913683 -0.051703844 -0.49615857
000020 16 6f 1d bc 40 e1 81 bd c2 7b a6 bb 2b 24 2a be
       -0.0096090045 -0.06341791 -0.005080671 -0.1661536
000030 f1 96 4c 3e 15 80 2a 3e 98 22 d2 be ab db fe 3e
       0.19979455 0.16650422 -0.41042018 0.49776968
000040 93 d2 24 bc d5 c3 41 be 42 3e 8b 3c 5c 79 a4 be
       -0.01005997 -0.1892236 0.01699746 -0.3212384
000050 98 1a d5 be 2d 87 69 3e d1 e3 0c 3e f0 6f 01 be
       -0.41621852 0.22805472 0.1375878 -0.12640357
000060 8d f3 2d 3e 67 d4 ac 3e 2f 67 a2 3d 9e 1f d8 be
       0.16987438 0.337558 0.07929837 -0.42211622
000070 9a bd 37 3e dc 4e b9 be 7d fb 8d 3e ab e8 90 3e
       0.17943421 -0.36192977 0.27730933 0.28302512
000080 d7 1c 0e 3e 21 f1 20 bf 0f 5f 97 3d af ea ab be
       0.13878189 -0.62867934 0.07391178 -0.33577487
000090 7c 3c 4f 3e d1 87 40 3e 00 15 97 3e cd 5d 86 3e
       0.20237917 0.1880181 0.2950821 0.2624344
0000a0 3c a2 2d 3d 6a 5c a5 bd 8c 52 76 be 0e 55 ff be
       0.042391047 -0.08074267 -0.24054927 -0.4986958
0000b0 2b 8c 85 be 02 15 b7 be ab 73 df 3d 30 ef 5c bd
       -0.26083502 -0.35758215 0.10910734 -0.053939044
0000c0 d2 e3 10 bf a1 2c ca 3d ec 45 ca 3e d5 32 63 bf
       -0.56597626 0.098717935 0.3950647 -0.8874944
0000d0 a1 a2 b7 be fb b9 b1 bc 66 70 e9 be 9a 9a df bd
       -0.35866264 -0.021695128 -0.45593566 -0.1091816
0000e0 9e 63 fa 3d d3 dc 8d bd 21 00 15 3e 7a 05 fe bc
       0.12226032 -0.069268845 0.1455083 -0.03100847
0000f0 f9 e4 ef 3e a4 95 72 3e 2a 03 53 be e9 23 c4 be
       0.4685438 0.23689896 -0.20606676 -0.38308647
000100 db 44 9c 3d bf f5 00 3e f1 95 95 be 67 29 b4 3e
       0.07630321 0.12593745 -0.2921596 0.35187837
000110 b5 ed b7 3e f8 7d 05 bd b1 b3 b1 3d 01 48 67 be
       0.35923544 -0.032590836 0.086768515 -0.22586061
000120 f7 43 a4 be 7b 4b 27 be 40 06 dd bd b6 38 5c be
       -0.32083103 -0.16337387 -0.10792208 -0.21506009
000130 14 66 03 be 4c fd 22 3c 82 c6 c9 3e 88 e0 df 3e
       -0.12831908 0.009948086 0.39409262 0.4372599
000140 cb 0f 54 3e b4 d4 24 3e 33 a4 4d bd 8b 04 78 3e
       0.2070915 0.16096765 -0.05020542 0.24220483
000150 50 f2 60 be f1 d7 3d bd f8 25 b0 3e 7e dd c8 be
       -0.21967435 -0.046348516 0.34403968 -0.39231485
000160 54 f3 95 be 86 38 8e 3e aa 76 55 3e de 0c 31 be
       -0.29287207 0.277775 0.20846048 -0.17290065
000170 05 d2 e9 bc ce 9f 0d 3f 6b 31 26 3e b8 02 ce bd
       -0.028542528 0.5532197 0.16229789 -0.10059112
000180 a6 86 ac bd fe 9a d8 be 1a 4e 5c be ec ef 7f 3d
       -0.0842412 -0.4230575 -0.21514168 0.062484667
000190 87 98 e9 3d 33 5a 8e 3e 62 18 40 3e af e2 d1 3e
       0.114060454 0.27803192 0.18759301 0.40993258
0001a0 93 7a 51 3e f4 f1 4a 3e 12 92 58 3e d1 9d a6 3d
       0.20456915 0.1981886 0.21149471 0.0813557
0001b0 07 57 d9 bd b3 0a c9 bd 4c ed 8f be 73 03 40 bd
       -0.10612302 -0.09816494 -0.2811073 -0.04687829
0001c0 b0 c1 03 3f e8 fd a9 3e e3 b6 ca be 22 24 89 3e
       0.5146742 0.33201528 -0.39592656 0.2678538
0001d0 32 f0 c1 bd 8a f0 95 bf ad 6c 9d bc 74 45 75 bf
       -0.09469642 -1.1714032 -0.01921686 -0.958091
0001e0 f1 4a f0 be 46 ad 87 3e fd 1f 2c be 78 a7 a5 3b
       -0.46932176 0.26499385 -0.16809078 0.005055364
0001f0 3f 2a 90 3e 44 50 ff bc cb 94 2d be 33 40 b0 3d
       0.2815723 -0.031166203 -0.16951291 0.08605995
000200 84 94 8a 3d 5e c2 5c 3d 9f 6e 10 3f ed d1 93 be
       0.06766608 0.0538963 0.56418794 -0.28871098
000210 fd e3 84 bd 8b 6e 63 3e f3 97 c8 be b9 78 01 3f
       -0.06488798 0.22210138 -0.39178428 0.50574833
000220 d5 07 17 bc 30 80 2f be 83 8b b8 3e 68 e9 49 be
       -0.009218176 -0.17138743 0.3604394 -0.19717944
000230 58 8c bb be a7 c8 d5 bd 46 d0 c2 be 2e 39 ca 3d
       -0.3663051 -0.10438662 -0.38049525 0.098741874
000240 3e 74 87 3e b4 e7 3d be 3a fd c4 be f5 28 bb 3d
       0.26455873 -0.18545419 -0.38474447 0.09138671
000250 eb 2a d5 bc c0 28 34 bf d7 30 4b 3e de 56 38 be
       -0.026021441 -0.7037468 0.1984285 -0.18001887
000260 33 06 b6 be cc c4 2e 3d fb c9 7e 3e a1 7f dc be
       -0.35551605 0.04266815 0.24881737 -0.43066123
000270 d3 c3 9e bc 83 b5 32 bf ca c2 fa be f1 c8 83 bf
       -0.019380486 -0.69808215 -0.48976737 -1.0295697
000280 70 01 8a be 68 e7 b6 3e a1 14 be be 5c cb 35 3e
       -0.26954222 0.35723424 -0.37125114 0.17753357
000290 12 db 93 3e f7 d5 02 3e b8 7c aa 3e 30 80 15 3e
       0.28878075 0.12776934 0.33298278 0.14599681
0002a0 31 d4 c1 3d 29 bb b8 bd 62 23 28 be 73 c7 7e 3e
       0.094643004 -0.09020073 -0.16419747 0.24880771
0002b0 c9 f4 5a be a1 a8 db be 9d 37 ce 3e f0 aa f3 3d
       -0.2138244 -0.4290209 0.40276805 0.11897838
0002c0 1d 07 36 be 05 bf 72 be 69 72 4e 3e 7f 22 02 3e
       -0.17776151 -0.2370568 0.20160832 0.12708472
0002d0 a7 b2 7c 3e 29 95 48 3e 7a 01 94 3d 3d 8e 85 bc
       0.24677525 0.1958815 0.07226844 -0.016303176
0002e0 5a 72 57 3e f0 a5 13 bf 2c 5a 88 be 97 a5 b0 be
       0.21039715 -0.57675076 -0.26631296 -0.34501335
0002f0 62 bf 75 bf a7 c1 0d be fc cb d0 be da 28 55 be
       -0.9599515 -0.13843404 -0.40780628 -0.20816365
000300 3d 6d 81 3d 55 22 74 3e 95 2d 9d be 67 8e e0 3e
       0.06319664 0.23841222 -0.3069884 0.43858644
000310 86 23 a2 3d 77 ec d1 be 27 0d 13 3e 15 28 d8 3d
       0.07916932 -0.4100072 0.14360486 0.1055452
000320 35 f2 e6 be d3 f9 ac 3d 26 8d 85 3e c6 3e 8a 3d
       -0.45106664 0.08446088 0.2608425 0.06750254
000330 a1 a0 1b bf 91 7f 4c 3d 7f 52 f8 bd c3 96 3a bd
       -0.60791975 0.049926344 -0.1212511 -0.045553934
000340 a7 1d 34 3e 7d 64 c5 be 91 ca a1 3e 82 ed 9e 3e
       0.17589436 -0.3855323 0.31599858 0.3104058
000350 f3 95 b6 be a0 33 50 3e 93 1d 28 3e e3 1e 85 be
       -0.35661277 0.20332193 0.16417532 -0.26000127
000360 cf 10 44 be 63 e7 f8 bd 04 a5 90 be da 3a 52 bd
       -0.19147037 -0.121535085 -0.28250897 -0.051325656
000370 dd ec f8 3e 18 27 86 3e 42 f3 87 be 8c c3 95 3e
       0.48618212 0.262017 -0.26552778 0.29250753
000380 9c 2a f6 bd 8e ac e7 be 36 e4 86 bd 9c 1b c5 3d
       -0.12019846 -0.45248836 -0.065864965 0.09624407
000390 9d 72 cc 3e df 2a 9c 3e 75 c5 b4 bb 4e fc 44 3e
       0.39931193 0.30501458 -0.005516703 0.19236872
0003a0 66 51 a8 be 26 4e fc bd bd 85 55 bd d3 7c a6 be
       -0.32874602 -0.12319593 -0.052129496 -0.32517108
0003b0 4a 22 c7 be 02 e0 fd 3e c8 78 2e 3e 7c 58 23 3e
       -0.38893348 0.49584967 0.17038262 0.15951723
0003c0 f3 2d 8b 3d 8f 87 1b be 6c e8 92 3d 1b 75 ab bd
       0.067958735 -0.1518843 0.07173237 -0.083719455
0003d0 a5 a4 d3 3e 53 15 aa 3e 97 c5 1a 3e a1 37 35 3e
       0.4133655 0.33219394 0.15114437 0.17697002
0003e0 b9 2a 2c be 21 f9 b9 be 37 1b 31 be 8a 17 75 be
       -0.16813172 -0.36322883 -0.17295538 -0.2393476
0003f0 e4 1f 3f 3e 36 7f 1d bd 37 6d b7 3e 53 35 1d be
       0.18664509 -0.038451396 0.35825512 -0.15352373

arith.constant2 f4 [128]
000000 e6 b4 3a bf be 76 f8 be 25 3b cf be 55 96 37 bf
       -0.7293228 -0.48528093 -0.4047481 -0.71713763
000010 41 d2 07 bf 1f 7f 67 bf d0 fe 9e be 24 e2 65 bf
       -0.53055197 -0.90428346 -0.31053782 -0.8979819
000020 cb ce 46 bf 9e b4 27 bf 72 6b 04 bf 18 7a 0e bf
       -0.7765929 -0.65509975 -0.5172645 -0.5565505
000030 2d 09 4b bf fa 05 06 bf c2 08 25 bf 9c 69 02 bf
       -0.79310876 -0.5235287 -0.6446649 -0.509424
000040 03 83 35 bf 85 bc 21 bf 29 59 5c bf 7a 36 05 bf
       -0.70903033 -0.6317828 -0.8607355 -0.5203625
000050 be 86 ec be 48 0c 21 bf 03 ab 11 bf 71 a4 37 bf
       -0.4619655 -0.62909365 -0.5690157 -0.7173529
000060 b1 42 20 bf ef c3 e2 be 78 75 1b bf 20 71 01 bf
       -0.62601763 -0.4429011 -0.6072612 -0.5056324
000070 95 0d e2 be e3 fa 1b bf 2a 82 0b bf 8b 12 57 bf
       -0.44150987 -0.609297 -0.5449549 -0.8401267
000080 1a e0 47 bf 84 c2 67 bf 20 f8 25 bf 25 70 d2 be
       -0.78076327 -0.9053118 -0.64831734 -0.41101184
000090 6e c0 0f bf b4 1d 09 bf 6c 81 40 bf c8 02 b8 be
       -0.56153 -0.5356095 -0.7519748 -0.35939622
0000a0 7d 65 4d bf ac 4d ea be 3e 17 62 bf a0 a3 ee be
       -0.80232984 -0.45762384 -0.88316715 -0.4660921
0000b0 51 10 61 bf 28 be 93 be 0a 14 58 bf b6 2f f8 be
       -0.8791552 -0.28856015 -0.8440558 -0.484739
0000c0 2f 06 2d bf 22 27 e2 be fa bc 0a bf f6 bf 08 bf
       -0.6758756 -0.4417048 -0.54194605 -0.5341791
0000d0 c0 f7 36 bf f6 06 ec be c0 e3 84 be c9 e2 00 bf
       -0.71471786 -0.4609906 -0.2595501 -0.50346047
0000e0 b5 5a 14 bf 74 83 10 bf e6 2c 1e bf ca 2a 74 bf
       -0.5795091 -0.5645058 -0.6178726 -0.9537779
0000f0 d8 87 03 bf a5 93 19 bf 53 cb fb be 5d 07 ed be
       -0.51379156 -0.5999091 -0.49178562 -0.4629468
000100 b2 74 2e bf fc ff ce be 4b 56 1f bf 96 5e 08 bf
       -0.6814681 -0.40429676 -0.6224105 -0.53269327
000110 fd 4a cd be 7a 72 17 bf cd 47 fa be 12 9b 16 bf
       -0.40096274 -0.5915905 -0.48882905 -0.5883037
000120 b2 77 07 bf 8c cb fa be e1 5b c5 be 35 9b 3c bf
       -0.52917016 -0.4898342 -0.3854666 -0.7367433
000130 c3 53 b9 be 92 ce 01 bf bc f7 0c bf ca 58 2c bf
       -0.36196718 -0.50705826 -0.5506551 -0.6732298
000140 a2 3e 29 bf b4 98 ba be ea 71 3c bf 46 43 08 bf
       -0.66111195 -0.36444628 -0.7361132 -0.5322765
000150 a4 ad db be c1 57 43 bf 72 f6 75 bf ec bb e4 be
       -0.42905915 -0.76305777 -0.9607917 -0.44674623
000160 a0 40 c3 be 5a 59 19 bf 52 06 17 bf 96 b4 25 bf
       -0.38135242 -0.59901965 -0.5899402 -0.6472868
000170 a8 7f 18 bf a8 7d f0 be 04 61 40 bf f8 ae a7 be
       -0.5956979 -0.46970868 -0.75148034 -0.32750678
000180 3b 20 0a bf b0 52 0c bf ec 80 c3 be aa c9 eb be
       -0.5395543 -0.5481367 -0.38184297 -0.46052295
000190 cb ae 0c bf 81 71 10 bf c3 e1 0c bf 86 1a 4c bf
       -0.5495421 -0.56423193 -0.55031985 -0.7972797
0001a0 5a 7c 32 bf 99 4b d9 be ec b9 11 bf 3d e4 f8 be
       -0.69720995 -0.4244049 -0.5692432 -0.48611632
0001b0 72 25 2a bf 41 76 08 bf 5e 06 d0 be 23 b6 fa be
       -0.66463387 -0.5330544 -0.40629858 -0.48967084
0001c0 cc 8e 3a bf 30 82 11 bf 5e 53 d9 be b1 ba 3e bf
       -0.7287414 -0.56839275 -0.42446417 -0.7450362
0001d0 54 fb f8 be d2 1c 04 bf 9b 4e 21 bf db 2c 65 bf
       -0.48629248 -0.51606476 -0.6301057 -0.8952157
0001e0 c2 48 45 bf b2 81 a4 be 3a c5 2f bf 04 f0 54 bf
       -0.77064145 -0.321302 -0.6866032 -0.83178735
0001f0 6b 96 14 bf aa cd fa be 6e 36 33 bf 08 b4 06 bf
       -0.5804202 -0.48985034 -0.7000493 -0.52618456

arith.constant3 f4 [128]
000000 e0 1a 32 3e e0 1b 63 3e bf 2c 70 3e 41 ff 81 3e
       0.17393064 0.22178602 0.2345457 0.25390056
000010 4f 4a a3 3e 02 7e 34 3e ff 7f 80 3e d3 92 54 3e
       0.3189263 0.17626193 0.25097653 0.20759134
000020 a2 23 52 3e 9d d2 55 3e 18 ab 97 3e 73 f0 95 3e
       0.20521405 0.20881124 0.29622722 0.2928501
000030 66 b5 7e 3e 93 8c 82 3e f7 0f 42 3e ea 21 67 3e
       0.24873886 0.25497875 0.18951403 0.22571531
000040 59 6d 40 3e 3e 8a 68 3e 9b d1 53 3e 59 ed fb 3e
       0.18791713 0.22708985 0.20685427 0.4920452
000050 6c 63 96 3e 68 ce b5 3e cb 3c 98 3e 56 f6 6e 3e
       0.29372728 0.35509038 0.2973388 0.23336157
000060 7d 98 7f 3e 0b 7a 9f 3e e2 8a 8d 3e dc b6 8f 3e
       0.24960513 0.311478 0.27645022 0.28069198
000070 3b 47 89 3e 1a 61 6d 3e a8 52 59 3e a1 f7 3e 3e
       0.26812157 0.23181573 0.21222937 0.1864915
000080 d8 29 3b 3e 8f 2a 5a 3e 63 a7 67 3e d3 06 a8 3e
       0.18277681 0.21305297 0.22622447 0.32817706
000090 4c a7 69 3e 07 a5 84 3e 11 14 21 3e de 03 ae 3e
       0.22817725 0.25907156 0.15730311 0.33987325
0000a0 7a 10 61 3e 3f 8c 81 3e 44 a0 5d 3e 62 96 b6 3e
       0.21978942 0.25302312 0.21643168 0.35661608
0000b0 aa de 62 3e 7a 3e 79 3e e5 68 6f 3e 45 c1 76 3e
       0.22155252 0.24340239 0.23379858 0.24097164
0000c0 d9 c9 57 3e 92 a8 e9 3e 8e bc 63 3e 78 16 a3 3e
       0.21073093 0.4563642 0.22239897 0.3185308
0000d0 c2 5a 47 3e 49 f4 73 3e 55 57 8b 3e c2 b2 89 3e
       0.19468215 0.23823656 0.27215067 0.26894194
0000e0 7e 0a 82 3e 00 a2 80 3e c3 f6 52 3e 6a 70 32 3e
       0.2539863 0.25123596 0.20601945 0.17425695
0000f0 50 88 49 3e d6 62 43 3e 8c 1c 89 3e f3 19 a2 3e
       0.19680905 0.19080672 0.26779592 0.31660423
000100 8a e4 48 3e 41 3b 90 3e 37 ed 3e 3e 68 34 86 3e
       0.1961843 0.28170207 0.18645178 0.26211858
000110 44 27 89 3e 76 0b 73 3e 83 26 90 3e 97 e6 7c 3e
       0.2678777 0.23734841 0.28154382 0.24697338
000120 42 de 88 3e 12 2b 87 3e 14 5d 36 3e 6d df 5a 3e
       0.2673207 0.26400048 0.17808944 0.21374293
000130 62 56 f7 3e d8 f6 92 3e 60 31 50 3e 09 fd 49 3e
       0.48308092 0.28703952 0.20331335 0.19725432
000140 88 82 77 3e 26 66 ac 3e 71 66 a7 3e ee bd 82 3e
       0.24170887 0.33671683 0.32695344 0.2553553
000150 97 63 9b 3e c3 39 48 3e 5b 2b 3f 3e aa 2a a8 3e
       0.3034942 0.19553284 0.18668883 0.3284505
000160 1a 67 96 3e e3 6b 7d 3e 8d 28 a6 3e 00 71 94 3e
       0.29375535 0.24748187 0.32452813 0.28992462
000170 e6 ae 8a 3e 93 0a 8f 3e 44 db 43 3e a7 36 97 3e
       0.27086562 0.27937755 0.19126612 0.29533884
000180 29 15 8e 3e 24 f1 6d 3e 1b 98 4b 3e b7 b0 4c 3e
       0.2775052 0.23236519 0.19882242 0.19989286
000190 84 69 56 3e ec 77 50 3e e9 b6 8d 3e 83 ec 82 3e
       0.20938689 0.20358247 0.27678612 0.2557107
0001a0 23 e2 55 3e c8 ba 8b 3e c8 d9 43 3e f8 70 90 3e
       0.20887046 0.2729094 0.19126046 0.28211188
0001b0 5f 5e 43 3e 81 87 ae 3e 21 0f 9f 3e 3a a4 a3 3e
       0.19078968 0.34087756 0.3106623 0.31961232
0001c0 fc f6 98 3e e9 1c ab 3e 8c 73 86 3e 07 cf 82 3e
       0.29875934 0.33420494 0.2626003 0.25548574
0001d0 13 ac 85 3e 48 fb 5a 3e 13 b6 9c 3e ad 80 5b 3e
       0.26107845 0.21384919 0.30607662 0.21435805
0001e0 38 7c 79 3e 43 01 ed 3e 7c 24 9c 3e 19 5a e6 3d
       0.24363792 0.46290025 0.30496585 0.112476535
0001f0 70 f8 95 3e 54 ad 87 3e 0e ef 9b 3e 1f a3 91 3e
       0.29291105 0.26499426 0.30455822 0.28444764

arith.constant4 f4 [128]
000000 d8 82 25 be 8c 95 b2 bd e2 11 a1 bd 3a 96 88 be
       -0.16163194 -0.0871993 -0.07864739 -0.26677114
000010 24 5a 87 be e0 3f e8 be 22 d5 a8 3d 39 28 89 be
       -0.2643596 -0.45361233 0.08243777 -0.267885
000020 00 0e e4 be b4 1b 76 be 90 3d 84 bc 9e f0 3a be
       -0.4454193 -0.24034005 -0.016142637 -0.1825585
000030 f9 17 b7 be 04 03 d2 be 1c e2 f2 be 62 95 45 be
       -0.35760477 -0.41017926 -0.47438133 -0.19295266
000040 58 3b 0c be 4a d2 e1 bd 16 a0 6a be b4 cb 43 be
       -0.13694513 -0.110264376 -0.2291263 -0.19120675
000050 03 44 32 be c8 d1 c9 be be f2 bd be 65 f8 45 be
       -0.17408757 -0.39417863 -0.3709926 -0.19333036
000060 46 13 ec bd a8 2c 63 be c4 f8 1f be 40 a7 20 bd
       -0.115271136 -0.22185004 -0.1562224 -0.039222002
000070 8d 22 13 be e0 2d 89 bd 2c b4 47 be 22 b3 1e be
       -0.14368649 -0.06698203 -0.19502324 -0.15498021
000080 ac 67 69 be 9e 40 06 be 35 75 82 be 90 fa 53 be
       -0.22793454 -0.13110587 -0.25480047 -0.20701051
000090 b2 b7 7a be 28 a3 18 bf a2 4f 78 be 9e 91 08 be
       -0.24484137 -0.59623957 -0.24249128 -0.13336799
0000a0 86 a3 a5 be 43 79 87 be 78 52 8f bd 6f ae 49 be
       -0.3235132 -0.26459703 -0.069981515 -0.19695447
0000b0 0e 51 0f be 1e 7b bf be 15 35 85 be 9e 94 90 bd
       -0.13995764 -0.37398618 -0.2601706 -0.070595965
0000c0 1d 71 34 be 9a fe 9a be 5d f5 13 be 80 b0 c2 bc
       -0.17621274 -0.3027237 -0.14449067 -0.023765802
0000d0 55 1e 87 be 55 15 aa be 6a 65 a9 be 88 36 51 be
       -0.2639033 -0.332194 -0.33085185 -0.20430958
0000e0 80 fe 48 3d 8b 3a 74 be 46 75 85 be 07 b8 98 be
       0.049070835 -0.23850457 -0.26066035 -0.29827902
0000f0 40 d8 76 bc a5 eb a7 be ec 36 48 be e3 c2 10 be
       -0.015066206 -0.3279697 -0.19552201 -0.14136843
000100 f4 d7 10 be 46 f2 92 be ac 33 de bd 7c 44 2c be
       -0.1414488 -0.28700465 -0.108496994 -0.16823
000110 b6 8a 0d be 3a 9a 97 be b6 69 2a bf 57 d9 a6 be
       -0.13822445 -0.29609853 -0.6656755 -0.32587692
000120 0c 7f 95 be d8 6b 84 be 56 63 47 be 62 77 2e be
       -0.29198492 -0.25863528 -0.19471487 -0.17037728
000130 ba 6d 8e be 98 17 d3 3d 72 db 26 be 20 c0 1b 3d
       -0.2781809 0.103072345 -0.16294649 0.03802502
000140 46 21 cf bd 50 c6 a6 be 5a 18 92 be 08 1a 92 be
       -0.10113768 -0.32573175 -0.28534204 -0.28535485
000150 12 31 1a bf 84 84 ad 3d 66 09 8a be 90 b5 9a be
       -0.60231125 0.08472541 -0.26960295 -0.30216646
000160 d0 06 b5 be 9c 0c 56 be f8 70 93 bd 1c 68 bd bd
       -0.3535676 -0.20903248 -0.071992815 -0.09248373
000170 54 2a bc bd 00 65 b4 ba c9 ab 79 be 48 16 4e be
       -0.09187761 -0.001376301 -0.24381937 -0.20125687
000180 f0 29 2c 3d e2 0d 29 be 18 3d 4d bd 22 38 e2 be
       0.042032182 -0.16509202 -0.05010709 -0.4418345
000190 e8 da c9 bd 5c 32 af be 9c 9f ad bd ab 53 c7 bd
       -0.09856206 -0.3421811 -0.08477709 -0.09732755
0001a0 20 60 a1 bd cc 2a a9 bd 33 29 19 be 40 b8 57 be
       -0.078796625 -0.08260116 -0.14957123 -0.2106638
0001b0 a8 b1 1f 3e b6 e7 c5 be 5e ab 43 be b6 b0 13 be
       0.15595114 -0.38653344 -0.1910834 -0.14422879
0001c0 b2 27 9e be 6a 39 5a be 90 30 ed be a2 61 84 bd
       -0.3088966 -0.21310964 -0.46326113 -0.064639345
0001d0 00 ec e3 bb 65 5d 9a be 60 43 a5 bd 70 77 62 be
       -0.0069556236 -0.3014938 -0.080694914 -0.22115874
0001e0 24 77 8d be 1f e4 4e be 68 40 90 3d d4 d8 25 be
       -0.2762996 -0.20204209 0.070435345 -0.16195995
0001f0 64 92 c8 be 37 84 6e be 6e 9a 5f be b0 ee 03 bd
       -0.39174187 -0.23292623 -0.21836254 -0.032210052

arith.constant5 f4 [128]
000000 42 58 56 3e 29 7c 42 3e c5 43 19 3e f5 26 59 3e
       0.20932105 0.18992676 0.14967258 0.21206267
000010 7d e7 38 3e 7b 3b 06 3e ee 6b 80 3e 63 86 1c 3e
       0.18057056 0.13108627 0.25082344 0.1528564
000020 51 84 52 3e 3f 0b 23 3e c5 64 2b 3e 45 c4 23 3e
       0.20558287 0.15922259 0.1673766 0.1599284
000030 aa e4 1b 3e bb 3d 24 3e 93 43 b5 3d 78 41 56 3e
       0.15223947 0.16039173 0.088507794 0.20923412
000040 c9 a6 60 3e 12 09 4b 3e f3 8c 8d 3d 34 7c 34 3e
       0.21938623 0.19827679 0.069116496 0.17625505
000050 a4 a7 bb 3d 4e a2 2e 3e 3b 9c b9 3d 39 57 9f 3e
       0.09162834 0.17054102 0.09063002 0.31121233
000060 69 e4 ed 3d 2a 14 17 3e 6d 6c a3 3e fd c2 b7 3e
       0.116158314 0.14753786 0.3191866 0.35890952
000070 de a7 7b 3e e7 ec 84 3e c4 6a 87 3e 30 e7 41 3e
       0.24575755 0.25961992 0.26448643 0.18935847
000080 5f bf 0b 3e 4c 45 37 3e 70 c0 22 3e 64 db 39 3e
       0.13647221 0.17897528 0.15893722 0.18150097
000090 61 c7 0a 3e d0 a4 18 3e f5 0a 9f 3d 0b d6 52 3e
       0.1355262 0.14906621 0.07765762 0.20589463
0000a0 d3 b1 8b 3e f7 78 0e 3e c8 51 e2 3d 21 0d 26 3e
       0.27284107 0.13913332 0.11050755 0.16215946
0000b0 c8 27 07 3e 51 1f 64 3e 3f ed 2f 3e 1e db 2c 3e
       0.13198769 0.22277571 0.17180346 0.16880462
0000c0 26 59 15 3e 8f 4c 93 3e dd 7c 0c 3e 11 62 4d 3e
       0.14584789 0.28769347 0.13719507 0.2005694
0000d0 13 ec 09 3e 31 26 63 3e 35 d6 64 3e b0 e5 17 3e
       0.13468961 0.22182538 0.22347338 0.14833713
0000e0 4b e0 04 3e 73 ff 37 3e 12 06 0a 3e 59 33 55 3e
       0.12976186 0.1796854 0.13478878 0.20820369
0000f0 52 60 26 3e 5c 49 0a 3e b6 58 2b 3e 3f e0 74 3e
       0.16247681 0.13504547 0.1673306 0.23913668
000100 af b0 09 3e f1 7e 2a 3e bc 16 3b 3e e5 25 80 3e
       0.13446306 0.16649987 0.18270391 0.2502891
000110 b5 4f 64 3e 58 7d 65 3e 30 9b 64 3e ea 2c 48 3e
       0.22296031 0.22411096 0.22324824 0.19548383
000120 7a 43 57 3e 13 f2 26 3e b3 0b 14 3e 72 c6 2a 3e
       0.21021834 0.16303281 0.14457588 0.16677263
000130 1c 12 e8 3d 21 61 a9 3e bd d1 69 3e 42 e5 9e 3e
       0.11331579 0.33081916 0.22833915 0.31034285
000140 86 3d f8 3d 3e fe 3d 3e a6 89 53 3e ec aa 09 3e
       0.1212111 0.18554017 0.20657977 0.13444108
000150 2f b2 70 3e ec 7b f9 3d 11 b3 49 3e 91 ad 67 3e
       0.23505472 0.12181839 0.19697215 0.22624804
000160 0e 9b f9 3d 82 66 41 3e a8 e0 60 3e 05 ef 45 3e
       0.121877775 0.1888676 0.219607 0.1932946
000170 fe b2 15 3e ec 15 53 3e 91 31 48 3e 89 55 34 3e
       0.14619061 0.20613831 0.19550158 0.17610754
000180 49 6f a2 3e 1f 89 4a 3e fb a6 92 3e b3 d8 44 3e
       0.3172553 0.1977887 0.2864302 0.19223289
000190 1b f3 77 3e f3 89 42 3e b0 c0 02 3e 10 74 45 3e
       0.24213831 0.18997936 0.12768817 0.19282556
0001a0 9b 31 6d 3e bd 0b 76 3e f6 73 69 3e 0a 2f 00 3e
       0.23163454 0.24027915 0.22798142 0.12517944
0001b0 f9 40 ad 3d 69 25 37 3e fe 0b 77 3e 49 fe 27 3e
       0.08459658 0.17885365 0.24125668 0.16405596
0001c0 a3 6e 0a 3e 37 f9 7f 3e 77 13 29 3e 69 ef e3 3d
       0.13518767 0.24997412 0.16511331 0.11129648
0001d0 99 90 94 3e c6 41 26 3e dc 00 74 3e 75 2f 29 3e
       0.2901657 0.16236028 0.23828453 0.1652201
0001e0 fc 48 3a 3e a8 5f 4a 3e 53 41 4a 3e 16 d9 1d 3e
       0.18191904 0.19763052 0.19751482 0.15414843
0001f0 bc 43 61 3e 3e 7c 14 3e 74 38 3b 3e 64 81 80 3e
       0.21998495 0.1450052 0.18283254 0.25098717

arith.constant6 f4 [64]
000000 75 40 17 bf e0 dc c5 be 35 81 63 bf 04 76 f7 be
       -0.5908273 -0.38645077 -0.8886903 -0.48332226
000010 14 19 d6 be 25 99 0c be 38 7f 73 be de b3 8f be
       -0.41816008 -0.13730295 -0.23778999 -0.28066915
000020 9f ac 22 bf de a3 13 bf b2 68 66 be a6 c3 02 bd
       -0.6354465 -0.57671916 -0.22500876 -0.031924866
000030 15 55 fc be fe e5 54 bf 3e a6 ea be c1 00 48 bf
       -0.49283662 -0.8316344 -0.45829958 -0.7812615
000040 64 47 c2 be 73 30 57 bf 58 55 6c be 98 3c e4 be
       -0.37945092 -0.840583 -0.23079431 -0.4457748
000050 95 e5 56 be cc e1 61 bd bc 0a 05 bf a1 7e a2 be
       -0.20986016 -0.055146977 -0.51969504 -0.31737235
000060 8c 12 5f bf 38 26 b6 be e6 ad b8 be d7 bc c5 be
       -0.87137675 -0.35576034 -0.36070174 -0.38620636
000070 68 c3 e2 be 82 37 5f bf fb ec 16 be a2 be 22 bf
       -0.44289708 -0.87194073 -0.14738838 -0.6357213
000080 1a 30 d5 be 5b 84 fd be 93 aa ae be 61 14 11 bf
       -0.4163826 -0.49515042 -0.34114513 -0.5667172
000090 9c 36 f1 be 8a 53 2f be 80 8b 8d bf 6e 63 1d be
       -0.47111976 -0.17121711 -1.1058197 -0.1536996
0000a0 c0 8a f2 be bc 23 b7 be 78 c5 92 be 23 24 2b bf
       -0.47371483 -0.3576945 -0.28666282 -0.66852015
0000b0 93 47 12 bf ef 97 2d bf ee 58 32 bf 68 f1 4f bf
       -0.57140464 -0.6780996 -0.69666946 -0.8122773
0000c0 2a e5 14 be 46 63 77 be 7a 03 78 be f9 f7 1e bf
       -0.14540544 -0.24158964 -0.24220076 -0.62097126
0000d0 e1 2e 30 bf a8 98 b7 be 80 aa 46 bf a2 87 95 be
       -0.6882153 -0.35858655 -0.7760391 -0.29205042
0000e0 0a 23 19 bf 2c 2d 0d bf 84 68 36 bf dd 3a 12 bf
       -0.5981909 -0.5514705 -0.7125323 -0.5712107
0000f0 5b f2 0e bf fe 1e 3d bf 20 b7 b5 be 5d 9f a2 be
       -0.55838555 -0.73875415 -0.35491276 -0.3176221

arith.constant7 f4 [64]
000000 88 91 87 3e 38 91 6a 3e 34 98 0d 3e dd 7a 9e 3e
       0.2647822 0.22906959 0.13827592 0.30953112
000010 6a 45 50 3e fb f9 03 3f 65 15 5a 3e 1c 05 3b 3e
       0.2033898 0.51553315 0.21297224 0.18263668
000020 fd 16 4f 3e 57 67 a9 3e 4d 99 51 3e d2 39 e6 3e
       0.20223613 0.33086655 0.20468636 0.44965988
000030 72 8b 92 3e c9 6f 28 3e a8 60 b9 3e 20 ab 3f 3e
       0.28622013 0.16448893 0.36206555 0.18717623
000040 19 de ec 3e 36 1d f1 3d 04 9c 56 3e 61 6c 48 3e
       0.46263197 0.1177315 0.20957953 0.19572593
000050 35 2e 5e 3e 6e 03 05 3f bb b6 23 3e bf 4b bb 3e
       0.21697314 0.5195836 0.15987675 0.36581227
000060 aa 08 93 3e 4b 8a 8e 3e f2 cf 54 3e 8b 14 da 3d
       0.28717548 0.27839884 0.2078245 0.106484495
000070 e9 24 8c 3e 62 f6 3c 3e 5d 45 af 3e 12 94 45 3e
       0.2737191 0.18453363 0.34232607 0.19294766
000080 26 f1 94 3e 5f be 67 3e d6 66 cc 3e 42 86 4d 3e
       0.29090232 0.22631215 0.39922208 0.20070747
000090 88 67 c7 3e c9 ed cb 3e 59 ff 25 3e 55 a8 9c 3e
       0.38946176 0.39829853 0.16210689 0.30597177
0000a0 4d 9a 8e 3e ad de 99 3e 42 39 62 3e ad 7e 23 3e
       0.27852097 0.300527 0.22092155 0.15966292
0000b0 f6 7d 1d 3e 8c cf b2 3e 58 9c 15 3e 39 76 06 3e
       0.15380082 0.3492397 0.14610422 0.13131036
0000c0 fd cd d2 3e c5 7f 6e 3e f9 15 7c 3e a9 06 28 3e
       0.41172782 0.23290928 0.24617757 0.1640879
0000d0 f5 e9 7f 3e 71 22 32 3e df da b3 3e 8d c2 7d 3e
       0.24991591 0.17395951 0.35127923 0.24781246
0000e0 57 28 27 3e b7 2d 0d 3e 1c db b2 3e b3 ac 79 3e
       0.16323982 0.1378697 0.34932792 0.24382286
0000f0 48 5a 82 3e c5 3e 38 3e e0 4a a2 3e 67 eb 44 3e
       0.25459504 0.17992695 0.3169775 0.19230424

arith.constant8 f4 [64]
000000 62 36 7f be b0 a2 7a bf 95 54 cb be 18 7c b6 be
       -0.24923089 -0.9790449 -0.39712968 -0.3564155
000010 c5 33 e1 be 08 6e d9 be 73 48 23 bf 02 b6 4e be
       -0.4398481 -0.4246676 -0.63782424 -0.20186618
000020 48 68 7c be 3f 5d 27 bf 9e fc 14 bf 18 76 92 bd
       -0.24649155 -0.6537666 -0.58197963 -0.07151431
000030 7c 87 26 bf 84 03 97 be 64 9c 3c be 48 a2 73 3d
       -0.6505048 -0.2949487 -0.18419033 0.059480935
000040 50 b6 d2 be 30 dc b0 3c 90 2e 3a be 10 ec 48 be
       -0.41154718 0.021589369 -0.18181825 -0.196213
000050 e0 23 a3 be b0 66 e6 be 00 a9 2a be a9 cb 2e be
       -0.31863308 -0.4500022 -0.16666031 -0.17069878
000060 06 75 6c be d0 c7 08 bf 2c 1b 04 bf 80 cc 41 3b
       -0.23091516 -0.5342989 -0.5160396 0.0029571354
000070 5c 07 44 3e 42 c1 07 be 00 46 b5 be 7c 13 09 bf
       0.19143432 -0.13257316 -0.35404968 -0.53545356
000080 b1 6f 2d bf b0 2f 86 bd 00 63 8c 3d c2 b0 c6 be
       -0.6774855 -0.065520644 0.0685482 -0.3880673
000090 d0 02 05 be 46 00 3c bf 70 80 3e be 22 3d 8c be
       -0.12989354 -0.7343792 -0.18603683 -0.2739039
0000a0 c6 03 15 bf a0 c0 f0 3c 95 b9 5d be cd bf 9d be
       -0.5820888 0.029388726 -0.21652825 -0.30810395
0000b0 00 e7 47 3c c3 5e c7 be f6 cf 6f bf 86 4f a4 be
       0.012201071 -0.38939485 -0.936767 -0.32091922
0000c0 de 09 aa be f4 b2 76 be 60 87 9a bc a6 ef b7 be
       -0.33210653 -0.24091703 -0.01886338 -0.35925025
0000d0 62 e9 95 be f8 ef 91 be d9 a3 81 be c9 7a 24 be
       -0.2927962 -0.28503394 -0.25320318 -0.16062464
0000e0 8e 5b 18 bf cd 7a 20 bf 89 66 5b be 8b 4b ae be
       -0.595147 -0.6268738 -0.21425833 -0.3404201
0000f0 dc 90 95 bd 64 0a 13 bf 72 0c 60 be 70 ca 64 be
       -0.0730302 -0.5743773 -0.21879748 -0.22342849

arith.constant9 f4 [64]
000000 6d 4a 6a 3e ae a9 eb 3e 6f 89 f7 3d 74 0d 42 3e
       0.22879954 0.46027893 0.1208676 0.18950444
000010 00 68 3a 3e ec fb 23 3e 51 a9 3f 3e 49 74 14 3e
       0.18203735 0.1601407 0.18716933 0.14497484
000020 4d e2 9b 3e 65 c3 38 3e 5d 33 20 3d 9f b9 1a 3e
       0.3044609 0.18043287 0.039111484 0.15109871
000030 c5 a9 99 3e 53 ad 26 3e f9 55 10 3e 35 98 09 3e
       0.30012336 0.16277055 0.14095296 0.13436969
000040 c4 eb 81 3d 29 73 50 3e de eb 20 3e 2e f3 52 3e
       0.06343797 0.2035643 0.15714976 0.20600578
000050 8c 1e 23 3e a5 c5 84 3e cb f5 09 3e 88 f0 59 3e
       0.15929621 0.2593204 0.13472669 0.21283162
000060 da aa 4a 3e d7 09 31 3e 55 4f 48 3e 5c b4 32 3e
       0.19791737 0.1728891 0.19561513 0.17451614
000070 23 8f 7a 3e 0d 78 85 3e 43 8b 57 3e e7 c4 b6 3d
       0.24468665 0.26068154 0.21049218 0.08924275
000080 92 a5 88 3e e6 97 58 3e b9 3b 48 3e 2d a4 8e 3e
       0.2668882 0.21151695 0.19554032 0.2785963
000090 6c 70 75 3e 96 fb 0e 3e 83 58 23 3e ce eb 0d 3e
       0.23968667 0.1396316 0.15951733 0.13859484
0000a0 51 07 5e 3e e5 d4 4d 3e 04 b6 46 3e 02 22 7a 3e
       0.21682478 0.20100744 0.19405371 0.24427035
0000b0 ff bb 54 3e 9a e0 9d 3e dc 80 17 3d 2f a6 89 3e
       0.2077484 0.3083542 0.036988124 0.268846
0000c0 e4 15 43 3e 89 96 77 3e fe f8 52 3e 33 20 b7 3d
       0.1905132 0.24178518 0.20602795 0.089416884
0000d0 20 50 19 3e 90 23 66 3e a9 f8 86 3e 1f f3 0a 3e
       0.14971972 0.22474504 0.26361588 0.13569306
0000e0 a8 a5 73 3e 74 56 4e 3e b6 cd 8d 3e 3f 39 49 3e
       0.23793662 0.20150167 0.27696007 0.19650744
0000f0 db 89 2a 3e 4d c1 3b 3e 4a 43 12 3e 24 91 3b 3e
       0.1665415 0.18335457 0.14283481 0.18317086

arith.constant10 f4 [32]
000000 70 dd 38 be 2c 9d 66 bd 00 12 5f be 72 3e 90 bf
       -0.18053222 -0.056302235 -0.2178421 -1.1269057
000010 7e 2b 34 3e 42 e0 21 bf 3e ad b3 be 9e d0 64 be
       0.17594716 -0.63232815 -0.3509311 -0.22345206
000020 1a 0f 81 be 55 90 14 bf ef 7b ce be 08 c3 eb 3c
       -0.25206834 -0.58032733 -0.4032893 0.028779522
000030 0c e7 35 bf 58 6e 0b be b6 92 3d be 8c f0 bf be
       -0.71055675 -0.13616312 -0.18512997 -0.3748821
000040 c4 2d f0 3d 7f 7b 95 bf 14 6c 9b be a0 cc ab be
       0.11727479 -1.1678313 -0.30355895 -0.33554554
000050 af 44 80 3e 47 7a 5a 3e 44 47 06 3d 6d f3 12 bf
       0.250524 0.21335708 0.032782808 -0.5740269
000060 9b 14 36 bf 08 33 c4 bd 00 df 63 bb 17 d4 7c bf
       -0.7112519 -0.09580046 -0.003477037 -0.98761123
000070 08 ee 4a 3c c2 9e 01 3e 2a 97 5b 3e 08 ea 37 bf
       0.012385853 0.12658218 0.21444383 -0.7184148

arith.constant11 f4 [32]
000000 58 9f d0 40 fd bc 52 40 54 f6 a5 40 9e d1 23 42
       6.519451 3.292785 5.1863194 40.954704
000010 e0 cf d7 40 65 72 b9 41 5a 6f ce 40 27 7d 9a 40
       6.7441254 23.180857 6.4510927 4.8277774
000020 1e 75 c9 40 de 7a d1 40 2e e8 13 41 20 1f 15 3e
       6.2955465 6.5462484 9.2441845 0.14562654
000030 16 0b 7d 41 31 a7 0a 42 9a 6d 69 41 92 60 28 41
       15.815207 34.663273 14.589258 10.523577
000040 17 dc 05 41 f8 ae bc 41 be 97 7b 41 27 3a 0a 41
       8.366233 23.585434 15.724546 8.639197
000050 c4 1e 83 41 22 ea 86 41 9d eb 54 41 1a f2 06 41
       16.390022 16.864323 13.307523 8.434107
000060 8c b9 40 41 5a f1 83 41 6f ef 27 41 44 cc df 40
       12.0453 16.492847 10.495955 6.993685
000070 43 c4 a4 41 33 7f 8c 41 09 33 c6 41 74 37 9a 41
       20.59583 17.562109 24.77492 19.277077

arith.constant12 f4 [32]
000000 58 b5 0b bf 00 13 ae be 33 da d0 be 94 74 e7 bd
       -0.54573584 -0.3399887 -0.40791473 -0.113015324
000010 88 32 96 bf 32 44 20 bf f3 9d fb be 28 5d 51 bf
       -1.1734171 -0.6260406 -0.49143943 -0.8178277
000020 0a 92 08 bf 42 5f 1f be 60 f3 1d bf 5e d5 23 bf
       -0.5334784 -0.15563682 -0.61699486 -0.6399745
000030 45 01 bc bd b9 1a be be 87 2b 3a be e2 a7 4a bf
       -0.0917993 -0.37129763 -0.18180667 -0.7916242
000040 f2 64 ee be 73 42 4f bf 46 65 6d bf 82 ef f6 be
       -0.4656139 -0.8096077 -0.92732656 -0.48229605
000050 f1 6a 91 be 0e a5 68 bf fc 72 fa be f0 3a 9d be
       -0.28401902 -0.90876853 -0.4891585 -0.30709028
000060 8d d8 84 bf 54 ae c4 be 59 83 bf be d6 19 59 bf
       -1.0378586 -0.38414252 -0.37404898 -0.8480505
000070 04 69 36 be ff 59 9a be fe 65 47 be d1 39 66 be
       -0.17813498 -0.30146787 -0.194725 -0.22482993

arith.constant13 f4 [32]
000000 37 eb 5a 3e f0 6b 1b 3f af 56 3c 3e 6d f2 cc 3e
       0.2137879 0.60711575 0.18392442 0.40028706
000010 a8 5f dc 3e 72 23 53 3f 68 fb 0e 3e b0 17 03 3f
       0.4304173 0.8247596 0.13963091 0.5120802
000020 a2 dc 1f 3e ac 47 b3 3e ca 2f e6 3e 67 cf c3 3e
       0.15611508 0.3501562 0.44958335 0.38244173
000030 85 43 b0 3e f8 01 c1 3e 4f e0 1d 40 79 b5 a7 3e
       0.34426513 0.37696815 2.4668157 0.3275564
000040 fd 5f 5d 3e 3c 98 96 3e 83 fc c6 3e 18 9e cb 3e
       0.21618648 0.2941302 0.38864526 0.39769053
000050 0a e4 7c 3e 78 97 5d 3e 71 36 4c 3e 8c c5 2b 3e
       0.24696365 0.21639812 0.19942643 0.16774577
000060 c5 1e 65 3e 6c 42 b9 3e e0 69 fc 3e 3b 33 8b 3e
       0.22375019 0.36183488 0.49299526 0.27187523
000070 e2 2a 36 3f 18 32 92 3e 88 f9 cf 3e ca 2b a6 3e
       0.71159184 0.28553843 0.40620065 0.32455283

arith.constant15 f4 [512]
000000 95 8f 83 be c7 73 4c be 48 51 17 be 1b 93 5b be
       -0.25695482 -0.1996604 -0.147771 -0.21442835
000010 47 ed 8c be f1 58 8f be 4f cd 36 bc bf 53 88 be
       -0.27524778 -0.27997544 -0.011157348 -0.26626393
000020 7f 14 7c be 93 2c 51 bf 7c 5e 32 3e 42 59 04 bf
       -0.24617194 -0.8170864 0.17418855 -0.51698697
000030 86 d0 1a 3d 9b 35 38 bf 35 0d a5 be 7b 9a dd 3d
       0.03779652 -0.71956795 -0.3223664 0.108204804
000040 b9 23 0a bf d7 82 16 3d ac ab 0f be 15 d2 dc bc
       -0.5396076 0.036745872 -0.14030331 -0.026955644
000050 5d d4 0f be 47 bf 9d be c3 fb 0c bd 7c 22 af be
       -0.14045854 -0.30809996 -0.034419786 -0.34205997
000060 de a3 78 bd 38 b0 b2 be db a0 09 be 7d 1d 68 bd
       -0.06070315 -0.3490007 -0.13440268 -0.056668747
000070 35 b0 b3 3e dd e5 2c be 9d 16 13 be 07 45 86 bc
       0.35095373 -0.16884561 -0.14364095 -0.016390337
000080 01 6a 94 3e c9 af a8 bd 22 a8 53 3d f7 7f fc bc
       0.28987125 -0.08236653 0.051674016 -0.030822737
000090 88 e3 b1 be 58 a1 6f be c0 1d 53 be 8f 43 2d be
       -0.34743905 -0.23401392 -0.20616817 -0.16920303
0000a0 7c e4 00 be bb 7d bf bd f2 bf 09 be fb 50 6f be
       -0.1258716 -0.09350153 -0.13452128 -0.23370735
0000b0 75 30 ac be bf 3f d0 be ef bb 9d 3e e5 eb a5 be
       -0.3363072 -0.40673634 0.30807444 -0.32406536
0000c0 cc 89 13 be 7f fe 75 3d c4 d6 6e be c3 68 87 3e
       -0.14408034 0.06005716 -0.23324114 0.26447114
0000d0 c7 06 e7 be e4 47 1f 3d ac d8 31 3d 58 0e a0 be
       -0.45122358 0.03888692 0.043419525 -0.31260943
0000e0 97 22 72 bd 6a f0 b2 be 0c 56 38 be 82 f4 1e be
       -0.05911502 -0.34949046 -0.18001574 -0.1552296
0000f0 13 cb 8e be 07 b6 b3 be bb 3b 18 be ea 67 23 be
       -0.27889308 -0.35099813 -0.14866535 -0.15957609
000100 b2 e2 72 3e 59 fa ee be 55 e6 e4 bd 09 1a df be
       0.2371929 -0.46675375 -0.11176745 -0.4357455
000110 2e 48 fa bc 82 f6 3d be 8e 9e 0e bf e6 68 44 3d
       -0.030551996 -0.18551067 -0.55710685 0.0479516
000120 9a 5f 10 be 72 13 0b 3c 1b 8f 84 be 4e 30 93 be
       -0.14098969 0.008488523 -0.2589043 -0.2874779
000130 0e 46 92 be 4e b1 ce bc 2e 66 f6 be 6e b7 55 3d
       -0.28569072 -0.02523103 -0.48124832 0.052176885
000140 fd 77 ef bb 59 0a 42 be d8 85 a4 be 40 48 d1 bd
       -0.007308005 -0.1894926 -0.32133365 -0.10218859
000150 88 46 91 be c1 d6 15 3e 46 09 13 be de 0e 15 bf
       -0.28374124 0.14632703 -0.14359006 -0.5822581
000160 3e 07 c0 bc 4c 19 87 3d ca 8d 98 be 16 22 0e 3c
       -0.023440953 0.06596622 -0.29795676 0.008675119
000170 95 d4 05 bc 85 e2 a1 be 01 3a 4e be 70 0e c2 bd
       -0.008168359 -0.31618133 -0.20139314 -0.0947541
000180 f4 86 ae be b0 19 bf bc a0 e5 a6 3e 69 bd 3e be
       -0.34087336 -0.023327678 0.32597065 -0.18626942
000190 29 09 f9 bd 79 cc 8f 3d 05 d3 a0 be 36 29 c8 be
       -0.1215995 0.07021422 -0.31410995 -0.3909394
0001a0 c3 9d 26 be a7 35 d9 3e 6d 1a 03 be c6 35 06 be
       -0.16271119 0.42423746 -0.1280305 -0.1310645
0001b0 8c 26 92 be 3c f4 af bd 48 b7 bc be 67 2a 1d bf
       -0.28545034 -0.08591506 -0.36858582 -0.61392826
0001c0 7f 6e 1f bf 07 1b 96 bd da 12 25 be 0a 94 6f 3d
       -0.6227798 -0.07329374 -0.16120473 0.05849079
0001d0 1c 8e 85 be 3a 01 92 3c 91 c4 70 be 93 1c 02 bf
       -0.26084983 0.01782285 -0.23512484 -0.5082485
0001e0 5a 07 a3 bd 4d f8 ac bd 9a a6 98 be ce da 13 be
       -0.079603866 -0.08445797 -0.29814607 -0.14438936
0001f0 70 51 30 be a1 9f 8d be a5 b2 96 3d 6e 19 00 bf
       -0.17218566 -0.2766085 0.073582925 -0.500388
000200 ca eb f8 be cb d2 98 be c6 5d 4a be a1 c6 62 3e
       -0.48617393 -0.29848322 -0.19762334 0.22146083
000210 e9 e4 a3 be 47 b7 96 bd 3d 06 23 3e 2f a7 28 3e
       -0.32010582 -0.07359176 0.15920348 0.16470025
000220 37 26 1e 3d 9d c7 ba 3d c6 50 97 bd d8 1d 5a be
       0.038610663 0.091201045 -0.07388453 -0.21300447
000230 0d f4 16 be 9b da b9 bd 6f 33 32 be a7 71 bb be
       -0.14741535 -0.09074899 -0.17402433 -0.36610147
000240 9b 5f bb be 4b 05 24 3c c4 af ad be 9e 2c af bd
       -0.3659638 0.010011028 -0.3392316 -0.08553432
000250 d4 e1 b5 be 28 9a 88 be 37 b1 e4 be eb f7 c4 be
       -0.35523856 -0.26680112 -0.44666454 -0.38470396
000260 c8 e4 1d be 0b df 86 be 05 52 9b be 5f 5b 92 3c
       -0.15419304 -0.26342043 -0.30336013 0.017865835
000270 4b 71 86 be 25 26 13 3a 02 68 8f be 6c b2 78 be
       -0.2625831 0.0005613289 -0.2800904 -0.24286813
000280 7d ed fe be b9 b5 a1 be e6 3a 99 bd 7b 0f 12 bd
       -0.49790564 -0.31583956 -0.07481937 -0.035659295
000290 01 3c 40 3e 5d 91 a4 be 1c 20 3d 3e 0e 6c a1 be
       0.1877289 -0.32142153 0.1846928 -0.31527752
0002a0 d2 ff 8f be 9e 39 18 be e5 07 c2 bc da bb 8e be
       -0.28124863 -0.14865729 -0.023685405 -0.27877694
0002b0 12 18 6e be 6d d6 a4 be 6c e2 95 be c4 6a 57 be
       -0.2325137 -0.32194844 -0.2927431 -0.21036822
0002c0 19 5a b1 bc 76 e5 40 be d4 bb c6 be fb 8b 90 3c
       -0.021649407 -0.18837532 -0.38815176 0.017644873
0002d0 96 1f c8 be 66 dd 5f be c0 16 21 bd fe 70 f3 be
       -0.39086598 -0.218618 -0.039328337 -0.47547144
0002e0 d9 47 a0 bd 61 f4 e1 be 95 ee 94 be 86 a3 bf be
       -0.07826204 -0.4413176 -0.29088274 -0.37429446
0002f0 bc fd 1d bf 90 d8 56 be c2 59 c5 be 23 ca 84 be
       -0.6171529 -0.2098105 -0.38545042 -0.25935468
000300 e2 20 36 bd cf 14 c2 be c3 7a 81 3d fe 34 80 bc
       -0.044464953 -0.379065 0.06322243 -0.015650269
000310 1d a4 9e be 71 05 e2 be a6 f3 e5 bd aa 78 9d 3e
       -0.30984583 -0.44144776 -0.11228113 0.30756122
000320 7f 16 17 bf cf bd ae be 4a b5 65 3d 70 42 c7 be
       -0.590187 -0.34129187 0.056081094 -0.38917875
000330 0f 69 07 bd ba a1 0c be 94 fc c3 3d 45 67 10 be
       -0.033059176 -0.13733569 0.0956966 -0.14101894
000340 c5 57 63 be c4 fc 74 3e e4 72 ef be 91 c0 a9 bd
       -0.2220145 0.23924547 -0.46767342 -0.08288682
000350 dc 59 c7 3d 6e 56 91 bc 9f 28 71 bd 2a 07 3a bd
       0.09733936 -0.017741408 -0.05887663 -0.04541699
000360 11 bc 35 be 49 de 0e be 6d 9f 49 be 71 1a c9 be
       -0.17747523 -0.13951983 -0.19689722 -0.39277986
000370 60 81 00 bd 1a c4 4e 3c f7 6a d0 be a3 94 f1 be
       -0.03137338 0.012619996 -0.40706608 -0.47183713
000380 b6 c7 9c be bf 1f a7 3d 62 95 cd bd 41 60 a6 be
       -0.30621117 0.08160352 -0.10038258 -0.3249531
000390 93 1d f7 3e b2 95 ee bd 18 63 33 be 29 31 1f be
       0.4826475 -0.11649646 -0.1751827 -0.15546097
0003a0 aa 59 1d 3e 6d 5b 18 be 1c cf d4 bd 43 84 b6 3d
       0.15366235 -0.14878626 -0.103910655 0.08911946
0003b0 2f 3e 5e 3e 19 79 b0 be 88 0b 14 bf 6f 8a bd be
       0.21703409 -0.3446739 -0.57830095 -0.3701968
0003c0 78 80 e2 3d 84 09 c7 be 32 d4 a4 3e 7d 76 f7 be
       0.1105966 -0.38874447 0.32193142 -0.48332587
0003d0 4f e2 d3 be 26 b2 4c 3d 0c 26 04 3f de 56 3a be
       -0.41383597 0.049974583 0.51620555 -0.181972
0003e0 58 22 9c be c3 64 7d bd 98 aa 17 be 32 4d 41 be
       -0.30494952 -0.061863672 -0.1481117 -0.18877104
0003f0 7a ae 18 be 9f d3 dc 3d b2 77 3a bd f9 6f 7e be
       -0.14910308 0.10782551 -0.045524307 -0.24847402

arith.constant16 f4 [47]
000000 a7 a4 51 3e 6e 40 e5 3e 71 0b 0f be 5c c5 8f 3e
       0.20472966 0.44775718 -0.13969208 0.2808026
000010 2a fc 94 bd 9a 8b db bd cc 4b 80 3c 42 02 11 3e
       -0.07274659 -0.10719986 0.015661143 0.14161018
000020 58 24 e9 bd 58 a9 ee 3d a5 e5 43 3e a9 c4 01 3e
       -0.11383885 0.116533935 0.19130571 0.12672676
000030 2c 79 be 3e 1a f7 cc 3c 47 d6 9e bd 93 cf aa bd
       0.37201822 0.025020171 -0.07755714 -0.08340373
000040 72 61 28 bd b4 95 82 3e 6c 86 10 bd 8f 07 ac be
       -0.041108556 0.2550484 -0.035284445 -0.33599517
000050 15 41 c7 bd 31 09 1a 3d 35 e8 82 3e 10 dc bf 3e
       -0.0972921 0.03760642 0.25567785 0.37472582
000060 1d c0 ab 3c cc 0d c4 3d 09 d6 cf 3e bb 4b f5 ba
       0.02096563 0.09572944 0.40592983 -0.0018714586
000070 a0 ed 58 3e 1f 8a 92 3d f3 20 c2 bb ad ca 37 bd
       0.21184397 0.07155251 -0.005924338 -0.04487102
000080 b9 30 77 be f5 77 76 bd ad a2 12 be 49 c4 28 bd
       -0.2413968 -0.060172994 -0.14319868 -0.041202817
000090 c3 ca 9b be c1 bd aa be 45 fe 97 be 8e 9a 85 3e
       -0.30428132 -0.33347896 -0.2968618 0.26094478
0000a0 9c 23 6c 3c f3 bb c6 be d9 0c b2 bd ec 9b cb be
       0.014412787 -0.3881527 -0.08693857 -0.39767396
0000b0 ef dd 71 be 78 b1 47 be 29 ea 0d 3e
       -0.23619817 -0.19501293 0.13858856

arith.constant17 f4 [128]
000000 06 b2 2c 3f 6b bf ff be 8e fe 56 3d 31 c0 80 3f
       0.6745914 -0.49950728 0.052488856 1.0058652
000010 d2 50 29 3f 43 93 d4 3d 25 de b4 3e 96 c9 bb be
       0.66138947 0.103796504 0.35325733 -0.36677235
000020 ca ff 9a be 84 5a dc bd b3 54 9d 3e b8 48 6b 3a
       -0.30273277 -0.10759452 0.30728683 0.00089753745
000030 6c 49 1b 3f f1 23 88 bd 6b 39 77 3f 8b b2 f4 3e
       0.6065891 -0.0664748 0.9657199 0.47792467
000040 fe 6e 47 3e 17 17 4a 3f ae 76 01 bd 0f 7e 27 3e
       0.19475934 0.7894148 -0.031607322 0.16356681
000050 fb 26 87 3d 8a 9e 5a 3f 53 15 50 3f 2d 65 ca be
       0.06599232 0.8539816 0.8128254 -0.39530316
000060 ae c9 b8 3e 59 b3 e4 3e f0 0c 88 3f c2 ba 0f 3f
       0.3609137 0.4466808 1.0628948 0.56144345
000070 8d c6 69 3e 46 8c 30 3d 24 42 ea 3e d6 9f 99 be
       0.22829647 0.043102525 0.45753586 -0.30004758
000080 1a f0 c7 3e 93 6f 82 be eb 5c 2f 3f e6 a9 2e 3f
       0.3905037 -0.2547575 0.68501157 0.68227994
000090 41 40 ad 3d 43 13 ca 3e 3e 4a 59 3c e2 1d 46 3f
       0.08459521 0.3946782 0.01326233 0.7738935
0000a0 a7 c9 09 3f 90 31 1f 3f fb 87 e2 3e 98 79 73 3f
       0.5382332 0.62185 0.4424437 0.9510741
0000b0 cd b5 b6 be 45 e9 79 3e 0a 55 00 bf 43 fc a0 3e
       -0.35685578 0.24405392 -0.5012976 0.3144246
0000c0 3c 18 eb 3e b1 ac 14 3f 09 00 a9 3e 00 98 94 3c
       0.45916927 0.58076006 0.3300784 0.018138885
0000d0 db 9e ac be a9 3c d9 3b 54 5d 19 3f 6c 74 68 3d
       -0.33714947 0.0066295457 0.5990803 0.056751654
0000e0 04 a6 88 3f a3 d8 bd 3e 56 bf 40 3f 0e ba 31 3f
       1.0675664 0.37079343 0.75291955 0.6942452
0000f0 99 91 12 be 39 08 81 3f 3e 1c 38 3d 60 1e c1 3e
       -0.14313354 1.0080634 0.04494881 0.37718487
000100 fe 86 3d 3f e4 5c 7a 3f 94 c4 11 3e 04 a1 27 3b
       0.74034107 0.9779799 0.14235145 0.002557815
000110 85 0e 7d 3f 2f 22 92 3f 26 e5 90 3e 68 ec 3d 3f
       0.9885028 1.1416682 0.28299826 0.7418885
000120 6a cb c5 3d 27 13 dc bd 1f 7a 1b 3f 59 77 58 3f
       0.09657939 -0.107458405 0.60733217 0.8455711
000130 2e 33 11 3e 6b 63 5f bf 70 a5 32 3f a7 4b f2 3e
       0.1417968 -0.87261075 0.6978369 0.47323343
000140 14 88 01 3f 0b 66 0f 3f 5e 50 4b 3e 63 b6 0c 3e
       0.50598264 0.5601508 0.19854876 0.1374145
000150 d3 5f dd 3e b1 cb 4a 3c ac 2d 63 3f 7c 56 80 bd
       0.4323717 0.012377665 0.88741565 -0.062664956
000160 67 8a 21 3f 49 3e 84 3e 13 01 9c 3e a4 d4 ae 3e
       0.6310181 0.2582877 0.3046957 0.34146607
000170 30 e2 ed 3e 3c 38 1e 3f 17 1c fe bd 21 cf 4c 3e
       0.4646163 0.61804557 -0.124077015 0.20000888
000180 48 77 2f 3f 95 45 07 3f b3 7b 7c 3c e5 e9 10 3f
       0.68541384 0.5284055 0.015410352 0.56606895
000190 10 30 e9 be 0e 53 30 bd 0e 32 01 3f 15 55 00 3e
       -0.4554448 -0.043047957 0.50467 0.12532456
0001a0 38 ae 3d 3e 20 28 1e 3f 98 b1 50 3f b1 8e 0c 3f
       0.1852349 0.61779976 0.81520987 0.5490523
0001b0 e6 b2 87 3f 70 b9 21 3f 7c a0 92 bd 2e f3 63 3f
       1.060147 0.6317358 -0.07159516 0.8904294
0001c0 d6 56 c5 bc 9a bc 3f 3f 01 db 47 3f cb e3 a2 3d
       -0.024089258 0.7489716 0.7806855 0.07953604
0001d0 35 c5 c7 3e 52 04 b6 3d 1a d6 24 bb 9f a5 1d bd
       0.39017645 0.08887543 -0.0025152029 -0.038488027
0001e0 d3 7f f3 bc 7e aa bd 3f 8f 0a a0 3f 95 1c b8 3e
       -0.029724037 1.4817655 1.2503222 0.35959306
0001f0 f2 35 f5 3e 59 d0 4d 3f 79 c6 72 bd 2b 2a 11 3f
       0.4789272 0.8039604 -0.05927131 0.5670497

arith.constant18 f4 [128]
000000 e3 91 80 3e d8 68 0c bc 46 6f 99 bd 35 ea 5e be
       0.25111303 -0.008569919 -0.07491927 -0.2176903
000010 aa 13 47 bd 96 fb ef bb 14 13 eb bd 55 03 80 3e
       -0.048602737 -0.0073236926 -0.11478248 0.25002542
000020 17 43 54 bd eb 72 87 bd 1d 1b 48 be b2 4b 2a be
       -0.051821794 -0.06613716 -0.19541593 -0.16630438
000030 7e 2e 15 3e d2 c5 d3 bd fe 8e 43 3d b6 60 a7 be
       0.14568517 -0.103404656 0.04774379 -0.32690972
000040 f4 29 60 bd 28 62 06 bd 46 32 00 be 1d de f5 bd
       -0.05472751 -0.032808453 -0.12519178 -0.12005255
000050 7a b7 c2 be 5e f9 4d 3d 02 dc 47 be 0b d3 94 3c
       -0.38030607 0.050286643 -0.1951752 0.01816704
000060 af 81 de bd 64 10 fc bd ca ec d5 bd a5 cf 30 be
       -0.10864579 -0.12307814 -0.104455546 -0.1726671
000070 b2 61 52 be 5c 86 fc bc ef 91 9c be 9c 3e 87 be
       -0.2054508 -0.030825786 -0.30580088 -0.26414955
000080 8f 2a c3 3d dd 7f c8 be 9b cf 38 be 0a 2e 0e be
       0.09529602 -0.39160052 -0.18047945 -0.1388475
000090 f3 4c 59 bd 2f e2 5e be 52 05 c7 3d 4d 6c 2b be
       -0.0530519 -0.2176597 0.09717812 -0.16740532
0000a0 11 93 82 3e 2c 60 fc bd 8f 78 9e bd 31 b5 33 be
       0.25502828 -0.12323031 -0.077378385 -0.17549588
0000b0 ae 2d 18 be 14 ea 93 be a2 c0 3c be 9f 8a d5 3b
       -0.14861175 -0.28889525 -0.18432859 0.006516769
0000c0 86 6e ad bd a4 3f aa bd e4 a9 6f be fb 9d 82 be
       -0.08468346 -0.0831292 -0.23404652 -0.25511155
0000d0 bc db 60 3e 3f f7 05 be 67 cd 0a be 92 ae 59 be
       0.21958822 -0.13082598 -0.13554917 -0.21258
0000e0 86 42 52 bc c3 3d 3e 3e ff ca b6 bd 92 d4 86 3e
       -0.012833243 0.18578248 -0.08925437 0.26334053
0000f0 e4 86 d5 bd fd 8a be 3e b9 a8 90 be 65 78 af 3d
       -0.10426119 0.37215415 -0.28253725 0.08567885
000100 9e 08 f7 bd d1 5d 2c 3e 5f f5 0a be 69 68 be bd
       -0.120621905 0.16832663 -0.13570164 -0.092972584
000110 cc 1f 10 3a 08 d5 a1 3e b8 77 14 be b6 b1 df 3c
       0.0005497902 0.31607842 -0.14498794 0.027306419
000120 fe b8 9e bd 17 73 11 3e 1a b3 82 ba 5e 63 57 bd
       -0.07750128 0.1420406 -0.0009971589 -0.052585
000130 48 41 3e be 62 e6 81 bd c8 55 5a 3e 88 0f 04 3e
       -0.1857959 -0.0634277 0.21321785 0.1289655
000140 0e f7 7c 3d 88 77 96 be d4 71 73 bd 85 c5 ed bd
       0.061759047 -0.2938807 -0.059434727 -0.116099395
000150 55 5e 99 3d 5f 88 d6 3c 75 76 a5 bc 7e 69 0c be
       0.074886955 0.026188074 -0.020198086 -0.13712117
000160 e0 48 17 bd 45 ab c0 be b1 72 02 be 20 96 6c be
       -0.036934733 -0.37630668 -0.12739064 -0.23104143
000170 7f 77 cd bd ea 24 f9 be 96 25 68 be af 57 05 be
       -0.10032558 -0.48660976 -0.22670588 -0.1302173
000180 3d ce 99 be c6 e1 51 3d 69 48 48 be f2 43 6e be
       -0.3004016 0.051240705 -0.19558872 -0.23268107
000190 7e ae 27 be 79 6f 20 3e 18 66 dd bd ac 32 15 be
       -0.16375157 0.15667523 -0.108104885 -0.14570111
0001a0 56 44 43 3d 3c f8 4b be 68 37 41 3e e3 59 56 bd
       0.047672592 -0.19918913 0.18868792 -0.052331816
0001b0 1c 43 4a be b5 27 39 be 7d 2c 1c be 4b 5a 7e 3c
       -0.19752163 -0.18081553 -0.15251346 0.015524457
0001c0 98 5e 52 3d d8 a6 50 bd 31 b7 c7 bd 49 7c a8 3e
       0.051359743 -0.050940365 -0.09751738 0.32907322
0001d0 ee a8 26 be 48 8a 61 bc f2 98 12 3e 95 9a e3 bd
       -0.16275379 -0.013765879 0.14316157 -0.111134686
0001e0 ac 6f 6f be 52 8b 5d be 47 75 f2 be 7d 0c ff bb
       -0.23382443 -0.21635178 -0.473551 -0.007783471
0001f0 85 76 81 be b1 fb 29 be 36 0b b8 bd 28 69 55 be
       -0.25285736 -0.16599919 -0.08986513 -0.20840895
