app/src/main/assets/model.tflite (tflite, 655400 bytes, 10 tensors)

arith.constant f4 [128]
00000000: f1ba b7bd 1c41 783c 7417 a7bd c99e 7fbd
00000010: 1e2f d1bd fcd0 80bd c815 b5bd e6ca 27bd
00000020: 5609 85bc 6878 75bd 126e 9fbd 9daf cdbd
00000030: e6ae efbd 4fea 8cbd 6117 31be 4fd1 43bd
00000040: b663 c2bd a0b0 f6bd fa8d 86bd 09c4 25be
00000050: e876 713c 97f0 f1bd a51a 03be 1258 d3bc
00000060: fc5e 57bd a807 86bc 147e 24be 3d81 97bd
00000070: bf57 fabd 4ab0 46bd 32d0 ecbd f442 97bd
00000080: db84 473d 3e83 c8bd 9e10 eebd b388 1cbd
00000090: 2b9d 96bd acaf c2bd 7823 8dbd a013 903c
000000a0: 7118 e93c afde 5d3d cdba 01be 44f7 1cbe
000000b0: e088 09be 8b90 1abc 32ca f6bd d23c 03be
000000c0: 51ca 07be 4d91 94bd f00b dfbd e38b be3c
000000d0: 7cff 87bd 546f 8bbd 6477 ffbd e9d6 9ebc
000000e0: b587 e6bd 158b 9cbc b1b8 1cbe a3ec 15bd
000000f0: 199e 78bd 07de ca3d 45ef cfbd d4f3 30be
00000100: 5d95 afbd c2b5 a5bd 2d9a 78bc 7907 143d
00000110: ed01 00be e143 74bd b97d 82bc bde3 87bd
00000120: 8a04 01be 1546 11be a830 9bbd e489 b33d
00000130: eaea 89bd 294a 923a fb7e 2f3d 7fde b6bd
00000140: 4a21 d4bd f069 c5bd b682 95bd bc8b eb3b
00000150: b75d 93bd 542b 28bd ea86 873c 9f22 053d
00000160: ba47 80bd 28ea 693d 3ea1 14be c1ba a7bd
00000170: cadb edbd 7e5e 11be 4e78 5bbe d98c 3bbd
00000180: fee9 67bd 8d66 4abd ca77 cbbd 4bb0 29bc
00000190: dd1f 2dbd 1fb1 dcbd 138a 71bd 0bd7 b2bd
000001a0: 529a ddbd 4a58 09be dd93 cbbd 780d 87bd
000001b0: 7c6b c4bd db93 84bd c802 11be af9b 60bd
000001c0: 3a1a 30bd d66c 463b 5437 1f3d 1303 a63d
000001d0: 709d e6bd 1f0b a53c e5ab 1bbe 8a68 47be
000001e0: 76eb d3bd 916d a4bd c13c 4dbc a005 9abc
000001f0: 6282 f3bc a519 acbd 99af 87bd 5ff6 abbc
-0.08971203 0.015152242 -0.0815877 -0.06240729 -0.10214065 -0.062898606 -0.08842045 -0.040964983
-0.016239803 -0.05992928 -0.07784666 -0.10043261 -0.11703281 -0.06880628 -0.17294075 -0.047807034
-0.094916746 -0.12045407 -0.06570049 -0.16188063 0.014737822 -0.11813467 -0.12803133 -0.025798831
-0.05258082 -0.016361073 -0.1606372 -0.07397697 -0.122237675 -0.048507966 -0.115631476 -0.07385817
0.048710685 -0.097906575 -0.11624263 -0.038216304 -0.07354196 -0.09506163 -0.06891531 0.017587483
0.028454037 0.054167446 -0.12668915 -0.153287 -0.1343112 -0.009433876 -0.120502844 -0.1281617
-0.13260771 -0.072542764 -0.10890949 0.023260063 -0.06640527 -0.068083435 -0.12473944 -0.019389587
-0.11256353 -0.019109288 -0.15304829 -0.036602627 -0.06069765 0.099056296 -0.10153059 -0.17280513
-0.08573411 -0.08091308 -0.015173477 0.03613994 -0.12500735 -0.059635047 -0.01592909 -0.066352345
-0.12599388 -0.1418689 -0.0757764 0.08766535 -0.067342594 0.0011161017 0.042845707 -0.089291565
-0.10357912 -0.096393466 -0.07300322 0.0071882885 -0.07195609 -0.041056946 0.016543824 0.03250372
-0.06263681 0.057108074 -0.14514634 -0.08189917 -0.11614187 -0.14196202 -0.21432611 -0.04578862
-0.056619637 -0.049414206 -0.09934957 -0.010356973 -0.042266715 -0.10775971 -0.05896957 -0.087324224
-0.1082045 -0.13412586 -0.09940312 -0.06594366 -0.095908135 -0.06473514 -0.14161217 -0.05483597
-0.04299376 0.0030277274 0.038871124 0.08106055 -0.112604976 0.020146905 -0.15202291 -0.19473472
-0.10347645 -0.08028711 -0.012526692 -0.01880151 -0.029725257 -0.08403329 -0.066252895 -0.020991502

arith.constant1 f4 [64]
00000000: ec55 0fbe 98a9 a33c e980 8bbd 3fb4 7dbd
00000010: 48b4 1abe 326f a6bd a40a debd f051 85bc
00000020: d1bb 9dbd e491 84bd 68ea 4dbd 1cfd 49bd
00000030: ce2d 14be 89c7 f9bd 058e c2bc 5f0c 65bd
00000040: 43b8 9d3d 676d a2bd e991 0dbc 07d8 35bd
00000050: e02f 59bc cb40 04be ac51 333d 76ff 26be
00000060: 324a 77bd 25d3 d9bd 7d58 31bd daef fbbd
00000070: 97d2 98bd c283 693b b20a 92bc 2387 b4bd
00000080: ee88 21be 96c2 2c3e 2412 e0bd 1f4a 46be
00000090: e775 0a3c 6126 0abd ee9c 4ebe bbff f2bd
000000a0: fda1 d2bd b110 0d3b ace2 0dbd e9ec 0dbe
000000b0: b240 dbbd e2c9 96bd ae75 f1bd 1605 a4bd
000000c0: af0f 53bd 95db 8abd d076 5dbd 4312 f33d
000000d0: 6035 823b c8e6 9bbd 0738 72bd 2254 22be
000000e0: 4c58 3dbd 68d8 acbd 98c1 babd 3d24 6bbd
000000f0: 0caa 0dbe 47b6 17bd 1e9c 23bd 2669 edbd
-0.1399762 0.01997833 -0.06811697 -0.061939474 -0.15107834 -0.081266776 -0.10841873 -0.016274422
-0.07701839 -0.06473139 -0.050272375 -0.04931365 -0.14470598 -0.121962614 -0.02374936 -0.05592
0.07701161 -0.07931023 -0.008640745 -0.044395473 -0.013256043 -0.12915342 0.04377906 -0.16308388
-0.060373493 -0.10635976 -0.04329728 -0.123016074 -0.07462042 0.0035631512 -0.017827366 -0.08814838
-0.15774891 0.16871104 -0.1094096 -0.19364212 0.008450962 -0.033728007 -0.20177051 -0.11865183
-0.10284803 0.0021524841 -0.03464 -0.13859905 -0.10705699 -0.07362725 -0.11790024 -0.080087826
-0.05152863 -0.06780163 -0.054068387 0.118687175 0.003973648 -0.076123774 -0.059135463 -0.15852407
-0.046226785 -0.08439714 -0.09118956 -0.057407606 -0.13834399 -0.037039068 -0.039943807 -0.11592321

arith.constant2 f4 [128, 3, 3, 64]
00000000: ef15 8dbd e330 e4bd 281b c1bc 1ddb 1bbe
00000010: c82e c2ba ae50 c2bd 2fac 86bc 032e dabd
00000020: 9356 85bd 8db8 cabb 54d2 96bd de7b 8cbd
00000030: cbb5 d2bd 8a8b 913d 59ea 92bc 0678 6f3c
00000040: f2f5 e43c 1537 92bd fef3 073c 5878 be3a
00000050: 8843 913b 20bf 153c 474c 9ebd 3277 b8bd
00000060: 8fed e8bc 2b3f 993a 106d b93a 99a7 efbd
00000070: 5a45 13bd a81f fd3b 8077 adbd e9ba a3bd
00000080: 8aab 053d a41f babc dc25 0cbd d041 7d3d
00000090: bd46 99bd 0b02 7ebd 426a 81bd 09ae 36bc
000000a0: da13 843d 3c90 adbc b7ad 52bd bf8d ac3c
000000b0: b477 12bd f2ac f3bc 505b 31bd 4af4 4dbd
000000c0: b312 9aba 8bcc 1d3d 882d 26bd 649e dcbd
000000d0: 5b76 cbbd 576e 303d 47ad 8c3c fffa df3a
000000e0: 6466 243c 0ef9 6fbd 6344 da3c bf30 233c
000000f0: 2c66 323c 392d acbc a29d b73d e70a 55bd
00000100: 9035 41bd 361b 26bd c576 a93b 3699 d8bd
00000110: 0f38 f3bc 44ba b4bd 6064 0abc de92 0dbd
00000120: 8e31 2cbd a990 a4bd 5d36 15bd aa15 54bc
00000130: 67fb 6ebd 2ff8 bcbd dea0 5abc 17ff 13bd
00000140: 2ba5 90bd 1535 513d 8b90 da3b 9099 883c
00000150: 6ffd 123d d4f9 b7bc 8e39 69bc 0d20 10bd
00000160: 2742 82bc d5fa c73c 61ba c9bb d0d9 a93c
00000170: a547 37bd 1d83 7fbd 7376 a6bd c7cf 783d
00000180: f793 1abd f9b3 1dbd 4063 443c cfb9 273d
00000190: 55da 86bd bcc0 66bd 1eda a4bd e3b5 f8bd
000001a0: 794a 443c 17d2 c53b 6c9e 6abd 2928 50ba
000001b0: 399c 28bd d8cb 88bd 6376 013d 523e 3abd
000001c0: 25be 933c f94f 1dbd 0bb8 4cbd 244c d1bd
000001d0: 61d6 78bd fcc8 8b3d 1ae6 9cbc 8339 733a
000001e0: 2062 91bd b3e3 ef3c fb6b d73c b06b 2bbd
000001f0: 759d b2bc 6286 a7bb 8b35 72bb 3bf0 9ebd
00000200: 1eef 31bd 6916 74bd 90cc ffbd ce9c dabc
00000210: efd6 afbd ca10 dbbc 4f3b 27bd aeea 80bd
00000220: 9e5c 4ebd 46bf b23c 0873 03bd 74a6 813b
00000230: 5d2a d9bb 1fbb e0bc f755 eabd 3e5d 2bbc
00000240: 4b98 54ba 13d1 2dbe e2c6 973c 9227 1abd
00000250: 5cec 79bd 9532 9abd 144a 8cbc c439 24bb
00000260: 1347 04bd 36ef 51bd 2a86 1fbd 3197 08bd
00000270: cac0 593d 5991 2cbd c51f 25bc 3dab 5b3c
00000280: 90bf 01be 1e25 d3bd 15c6 95bb 4e99 c4bc
00000290: b0f9 05be 983d ccbd d1f0 1ebe 7f45 debc
000002a0: eb4a 673c 3db4 c6bd 007e b9bd 6b8c 81bd
000002b0: 15ab 99bd 4e8c e5bc c2d9 ed3c 2b25 9a3c
000002c0: 7680 1abd 4c5f 3fbd 4d7d b13b 5f9b aabc
000002d0: 874e 8cbd 1acd 86bd 2820 78bc 143e b93b
000002e0: 62d5 26bd a65b 343c e6bf 31bd 05b5 d0bc
000002f0: 6fe5 e03c fc3f 82bd 197a 1dbe 5fcb dfbd
00000300: 6cba 263b 7ca7 aa3d 7ee0 9d3c d70f 43bd
00000310: 14ba 12bc 3ef9 37bc a8bb 8fbc 58ad 04be
00000320: 607c 4cbd 7325 9dbd ac5f 46bd 8299 63bc
00000330: 224f 95bb 09ab 24bd dc4a 1cbe 2f6e 11bc
00000340: d117 33bd a5bb 04be febe 043d 6432 8fbd
00000350: 4318 babd 7b99 7bbd 2bc7 21bd cf78 67bd
00000360: f457 8fbc 1cd5 07bc 6b66 0bbd 0106 b9bc
00000370: c0fc 35be e3dc e9bc a4e7 a6bb f190 e7bb
00000380: c06c 003b cc3b 27bd 5f05 893c dbf0 79bd
00000390: 61dd f2bd 2692 7fbd 1af6 3cbd 9729 f73c
000003a0: 912c 5f3d 6c8f aebd 277f c1ba 97f2 cdbc
000003b0: c5c1 99bd 4aed 433a bd77 86bc 1114 05be
000003c0: f30e c03b 86f3 d8bd 8cc1 293c 9508 8a3c
000003d0: 1b9e 64bd e798 a6bd 5d48 bcbc 66ab d3bd
000003e0: 152e 3b3c 618f 6bbd abda 153d 23bd a8bd
000003f0: bd72 89bd 0ba2 873d 9e7f c0bc 3ae7 78bd
-0.06888949 -0.11142137 -0.02357252 -0.15220304 -0.0014814967 -0.09488045 -0.016439525 -0.10653307
-0.06510653 -0.006186551 -0.07364336 -0.06859563 -0.102885805 0.07106693 -0.017934011 0.014616018
0.027949307 -0.07139412 0.008297918 0.0014531715 0.004433099 0.009139806 -0.077293925 -0.0900711
-0.02843359 0.0011691799 0.0014146883 -0.117018886 -0.03595481 0.007724721 -0.084700584 -0.07994635
0.032634296 -0.022720166 -0.034215793 0.06183034 -0.074841954 -0.062013667 -0.06319095 -0.011149892
0.06449099 -0.02118694 -0.0514352 0.021063684 -0.03575869 -0.029745553 -0.043299973 -0.0502818
-0.001175484 0.038525146 -0.040570766 -0.10772398 -0.09934684 0.04307398 0.017172469 0.0017088352
0.010034177 -0.058587126 0.026643937 0.009960352 0.0108886175 -0.021017658 0.08965613 -0.05201235
-0.04717022 -0.040553294 0.005171629 -0.10576098 -0.029689817 -0.0882459 -0.008446783 -0.03456389
-0.042039447 -0.08035404 -0.036428798 -0.012944618 -0.058345225 -0.09227025 -0.013344018 -0.036131945
-0.07062753 0.051076014 0.006670063 0.016674787 0.035886224 -0.022457995 -0.0142349135 -0.035186816
-0.015900685 0.024411598 -0.0061562513 0.020733744 -0.04474606 -0.0623809 -0.08128061 0.060745027
-0.037738767 -0.038501713 0.011986554 0.040948685 -0.06584612 -0.05633615 -0.08049415 -0.12144067
0.011980646 0.0060370076 -0.05727999 -0.00079405546 -0.04116461 -0.06679505 0.031607043 -0.04546959
0.018035004 -0.038406346 -0.049980205 -0.10219601 -0.060751323 0.06825444 -0.01915269 0.0009278284
-0.07098794 0.02928338 0.026296606 -0.041850746 -0.021803597 -0.005112455 -0.0036958184 -0.07760664
-0.04344093 -0.059591684 -0.12490189 -0.026686098 -0.08585917 -0.026741404 -0.040828045 -0.062947616
-0.050381295 0.021819722 -0.032092124 0.0039566103 -0.0066273645 -0.027432976 -0.11442178 -0.010459242
-0.00081098516 -0.16974287 0.018527452 -0.037635393 -0.061016425 -0.07529179 -0.017125167 -0.0025058845
-0.032294344 -0.05125352 -0.03894631 -0.033347312 0.053162374 -0.0421308 -0.010078375 0.013407526
-0.12670732 -0.10309814 -0.0045707324 -0.023998883 -0.1308353 -0.099726856 -0.15521552 -0.027132748
0.014116983 -0.097023465 -0.09057236 -0.06325611 -0.075033344 -0.028021004 0.0290345 0.018816551
-0.037720166 -0.04672174 0.0054165483 -0.02082604 -0.068509154 -0.06582089 -0.015144385 0.0056531522
-0.04073084 0.011008179 -0.0433959 -0.025476942 0.027453152 -0.0635986 -0.15378608 -0.10927462
0.0025440706 0.08332726 0.019272085 -0.047622528 -0.008955497 -0.011228858 -0.017545536 -0.1295675
-0.0499233 -0.076731585 -0.048431084 -0.01389158 -0.0045565525 -0.040202174 -0.15262932 -0.0088763675
-0.043723885 -0.12962206 0.032408707 -0.06992033 -0.09086659 -0.061425667 -0.039496582 -0.056511696
-0.017497994 -0.008290555 -0.03403322 -0.02258587 -0.17772198 -0.02854771 -0.0050935317 -0.007066839
0.001959607 -0.04082851 0.016726194 -0.061020713 -0.11858631 -0.062395237 -0.04613314 0.030171199
0.05448586 -0.08523449 -0.0014762626 -0.02514009 -0.07507662 0.00074740185 -0.016414518 -0.12995936
0.005861157 -0.105933234 0.010361087 0.016849795 -0.055814844 -0.081346326 -0.022983724 -0.10335426
0.011424561 -0.057509784 0.03658549 -0.082392 -0.06711338 0.06622704 -0.023498353 -0.06076739

arith.constant3 f4 [64, 3, 3, 32]
00000000: dcfc e8bc cb7c 5abd 45d5 b43d 0c56 96bd
00000010: eaaf ec3d fa5e 57bd 546b 033d dc50 c0bd
00000020: 66bd 4a3d 4f56 7cbe fee2 9a3d 5fec b13c
00000030: 0d77 72bc 3c31 523d 3696 1c3e 833d 8b3d
00000040: 1e05 8e3d d5d5 0fbe d57e 4b3c a7a4 cd3c
00000050: b347 19bc 4ad1 f03d 1b4c 8d3d 3430 0c3e
00000060: a517 ce3d b67e 1e3d b9f3 883d 86f1 b23d
00000070: 0c42 36bd 9136 b5bd 4f77 a9bc 48f7 583d
00000080: e7ef 28be 83b3 45bd 2430 9c3e 4cf3 00be
00000090: f9d4 bfbd 1c6b cdbd cb85 40bc f1f4 ddbc
000000a0: e303 3dbe ba00 93be e552 45be c9b9 37be
000000b0: 783b 503c 2a9d 1c3e 6916 44bd 89b9 123d
000000c0: 33f2 063d af6c f6bd 3d5e 7ebe 345d 29be
000000d0: 0f67 9b3d 1329 c4bb 7e87 8a3d f0c5 7ebc
000000e0: 7ac6 cbbd 812f 7a3d 702f f0bd a485 05bd
000000f0: c468 3f3d 4e85 3fbe dd9a 533d 8bba c03c
00000100: f03d 2cbd 74d5 5e3d a868 923e 737a 4d3e
00000110: e1a1 5fbd 77d3 02bd 204a 5a3d 1237 583d
00000120: 6b75 24be afed d3bd 0cd2 cebd 2a47 2cbe
00000130: 1253 45bc 8bef 463e 34ed 19be 2d9c 6fbc
00000140: a6fd 16be edfe df3c 916b cebc 7ce4 47bd
00000150: e0f6 bdbd 964a efbd 24bc 3b3d d70d c63d
00000160: 1fb5 1dbe 3ff6 3e3e 2da4 a73d 03c5 03be
00000170: dea8 04be fc84 87bc 11fa 6c3e 4169 0d3e
00000180: 3c0c 3fbe 9dc7 4dbe c288 1d3d 6043 79be
00000190: 383f 1fbe d24d 45be 1f4c 643e 9b17 3abe
000001a0: d6ce 0d3b 49bc 063b 5a3e 2f3e 9ded 9abd
000001b0: 2cbe eebd 069a 87bd d236 e43d febd 8abb
000001c0: fbb5 20bc 66de 803c e163 103c 94af 11be
000001d0: 7f20 27be 6c6d bc3c 7c0a 423a 1996 73be
000001e0: ec47 853d 87ab c03b 9225 8cbe c5ec d5be
000001f0: d98f 70bc 0da4 c4be 45fc 1cbd 1109 ecbd
00000200: ff6f 88bd 9eff ad3b a863 4c3e c3fe 71bd
00000210: 7c36 6b3e 89fe e4bc 1369 c6be 57d4 35bc
00000220: a4d9 b5bc 46f8 87be cef0 583d 2f42 2f3d
00000230: f568 483e 0940 21bd 959b a43c 11d1 15bc
00000240: 74af ba3d e8e6 cd3d 981a 65bc 6218 81bc
00000250: e9cb 7e3d c2a0 aabe e6d2 683d a353 7ebc
00000260: 1d54 303d d08e 2b3e d68a 42be 880e 32be
00000270: 1e1b da3d 7cc2 1abe acab 343d 0f57 823d
00000280: 4c32 14bd 936e 823d 063c ba3e 0dce 383e
00000290: 90f2 5b3d 194e ec3d 76d1 f63c a2df a33d
000002a0: 79bd 6e3d bce5 debe 6a76 593d 27da f0bd
000002b0: ed92 2abd 4a10 4e3d 7c3a 17be 93f7 763c
000002c0: adfb 01be 52a4 213c d81f a73d 245a a7bd
000002d0: 7c4b afbd f63a 0abc 8e01 053e 8ac7 3e3d
000002e0: 36ec febd 1149 553e e727 353d a411 ed3d
000002f0: 49fb 90bc df58 a73d f845 5a3e 2e5a 803e
00000300: 65e3 7dbc 37b7 8bbd 283a 553e b89f b2bd
00000310: 7c00 13bd d1c3 9cbd 32d7 573d 3a76 b1be
00000320: c8be c4bb bbc2 62bd 7bae bbbd 8551 143d
00000330: 7d07 67bc b9c5 173d 1ce8 86be 0124 893d
00000340: a002 76be 88f1 7fbc a185 80bd 1752 57be
00000350: e039 49be f96f 183d 9372 7cbe 3c70 14be
00000360: 8f65 32be ba57 783d 6521 1bbc 5719 0dbe
00000370: 1700 a0be 463e cf3d e427 5a3c f706 0bbc
00000380: 6a12 bb3c 8c30 5fbe ee80 163d fac6 10be
00000390: b504 9bbc e92e ccbd 51a1 22be 5cd5 87be
000003a0: 1f98 f03d ff64 34be 9b6c 983d 3edb 7b3d
000003b0: 3f85 85be 0791 afbe 7bc8 813d 9a24 de38
000003c0: 7f3a 243e 91cd a33d 3a3b 3dbd 3211 06be
000003d0: e9c6 36be 2f80 1cbe aaf7 a4bd d678 c1be
000003e0: f4d9 7abc 95ed 68be 1ad5 b03c 5f44 11be
000003f0: 596c c13d b39d 0fbe 2df0 4ebe 92f9 02bf
-0.028440885 -0.053341668 0.088297404 -0.07340631 0.115569904 -0.05258081 0.032084778 -0.09390423
0.04949703 -0.24642299 0.075628266 0.021719156 -0.014798892 0.051316485 0.15291676 0.06798842
0.0693457 -0.14046414 0.012420376 0.025102926 -0.009355473 0.11758669 0.068992816 0.13690263
0.100631036 0.03869506 0.066871114 0.08737473 -0.04449658 -0.08848298 -0.020686774 0.0529702
-0.16497765 -0.0482669 0.30505478 -0.1259281 -0.09366793 -0.10030195 -0.011750649 -0.027094336
-0.18458514 -0.28711492 -0.19269903 -0.17941965 0.012709491 0.15294328 -0.047872934 0.03582147
0.032945823 -0.120324485 -0.24840637 -0.1653946 0.07588016 -0.0059863417 0.06764124 -0.015550122
-0.09949966 0.06108046 -0.11727798 -0.032598153 0.04673077 -0.18703195 0.05166136 0.02352645
-0.042051256 0.054402784 0.2859547 0.20066242 -0.05459774 -0.03193995 0.053293347 0.052786894
-0.16060416 -0.10348069 -0.10098657 -0.16824022 -0.012043731 0.19427316 -0.15031892 -0.014624638
-0.14745197 0.027343238 -0.025197776 -0.048801884 -0.09275603 -0.11684148 0.04583372 0.096706085
-0.15401123 0.18648623 0.08185611 -0.12868123 -0.12955043 -0.016542904 0.23142268 0.13809682
-0.18657011 -0.20095678 0.0384605 -0.24342108 -0.1555146 -0.19267967 0.22294663 -0.18173067
0.0021638176 0.0020559004 0.17113629 -0.075648524 -0.11657366 -0.066211745 0.11143269 -0.0042340746
-0.0098090125 0.015731048 0.0088128755 -0.14227134 -0.1632099 0.023001395 0.0007402075 -0.23787726
0.06507859 0.0058798227 -0.27372414 -0.41782203 -0.014682733 -0.3840641 -0.03832652 -0.11525167
-0.066619866 0.005310013 0.19959891 -0.05908085 0.22970003 -0.027953403 -0.3875204 -0.011097989
-0.022198506 -0.26556605 0.052964024 0.042787727 0.19571288 -0.03936771 0.020093719 -0.009144084
0.09115496 0.100538075 -0.013983391 -0.015758697 0.062206183 -0.33325773 0.056841753 -0.01552287
0.043048967 0.16753697 -0.18998274 -0.17388356 0.106497034 -0.15113252 0.04410903 0.06364261
-0.03618078 0.063687466 0.3637392 0.18047352 0.053698123 0.115383334 0.030129176 0.08001639
0.058286164 -0.43534648 0.053091444 -0.11760359 -0.041644026 0.050308503 -0.14768404 0.015073675
-0.12693663 0.009865837 0.081603706 -0.0817149 -0.085593194 -0.008436909 0.12988874 0.046577014
-0.124473974 0.20828654 0.044227507 0.1157563 -0.017697947 0.08171248 0.21315753 0.25068802
-0.01549611 -0.06822055 0.20822966 -0.0872187 -0.035889134 -0.076545365 0.05269546 -0.34660512
-0.006004188 -0.05536149 -0.09164139 0.036210556 -0.014100906 0.037053797 -0.2634896 0.0669632
-0.24024439 -0.01562155 -0.06275488 -0.21027409 -0.19650984 0.03721616 -0.24653082 -0.14495939
-0.17421554 0.060630538 -0.009468411 -0.13779198 -0.3125007 0.101192996 0.013315175 -0.008485547
0.022835929 -0.21795863 0.03674405 -0.14138404 -0.018923143 -0.09969885 -0.1588185 -0.26529968
0.11747765 -0.17616652 0.0744259 0.061488383 -0.2607822 -0.34290335 0.06337067 0.000105926025
0.1603794 0.07998193 -0.04619906 -0.13092497 -0.17849316 -0.15283273 -0.08055051 -0.37787503
-0.015310753 -0.2274688 0.02158599 -0.14186238 0.09444494 -0.14025001 -0.20208807 -0.51162064

arith.constant4 f4 [35, 128]
00000000: 21b3 de3d 3bf9 b43d 6096 eabe bd15 0abe
00000010: 87fb de3d ab53 92be b523 a43d 54c6 0bbf
00000020: fdd1 a83d 8acc 303d d9db 86be 1ac7 0fbf
00000030: 9064 823d 28c9 a5be 4cf7 503b 1c8b 26be
00000040: 94b3 03be 035d 533d 73f7 5c3d 6ef6 e4bd
00000050: 55dc abbe a917 00bf 2d21 3dbe fb61 743e
00000060: 93d3 96be 1610 a6be afb5 b13d 03ba 1cbf
00000070: 48be 043e fead 14bf e51d c33d 11b2 8c3d
00000080: 8854 6e3e 55fe 59be b4de 12bf 717d d83d
00000090: 35aa afbe e044 4cbd 9748 cfbd f971 aebd
000000a0: b6fb 03be 2e19 083e f6ef b63d 592e f13d
000000b0: 9178 7cbe b449 66be 99f3 6fbe 4a47 01bf
000000c0: 804c 82be b6ff cbbe 3bfe 3fbf 9e88 85be
000000d0: 3df7 03bf 7db5 94be 2a56 f53d 5c63 82be
000000e0: 7e3f 2fbe 050f 0c3e 9d20 17bc 0bc7 4d3e
000000f0: 0426 e13d 70c8 8bbe 4ccf 44bd c862 3bbd
00000100: 9067 0bbe 1685 0e3e bc54 05bf 0955 87be
00000110: e4a7 33be e9b1 473e f3a7 8d3b 89c7 86be
00000120: fa99 62be 5c68 4dbd cd8c c4be dabb dd3d
00000130: 0c16 d9be 6394 673e 0673 c5bd b08a 0d3e
00000140: 5fbe a6be 6c39 23be ea9f 283e 62ef ccbe
00000150: 0797 1ebe 17ed ea3d 4ea0 c1be a3b6 e9be
00000160: df5c 423e 7575 08be e113 19bf aa99 0dbd
00000170: 12f1 00be 25dd 17bf 3c0b 55be 2efc 0f39
00000180: badd 0bbe b2e8 47be 4503 9fbd 7941 043d
00000190: 6601 e8be 348d 9bbe 868e 2abe ceee c33d
000001a0: 6592 a6be 7419 803d 4fd4 09bf 43cf f33c
000001b0: 859d 6cbe 173a e4be 5eda a2be e160 8fbd
000001c0: 9959 0dbf d7ef 24be e2af 2a3e 2fd0 853e
000001d0: 608e f3be a091 f03d 7f09 663e ab3d ce3d
000001e0: 94a1 25bf 9c2f 273e 1a7e b3bd 057f 97be
000001f0: 42e1 2a3e 180c 0ebf 9d77 6e3e da8c 0fbf
00000200: 967e 75bd ef84 04bf 7ce8 aabe e6c5 39be
00000210: 119d 2d3e 7312 bf3d cdf9 2c3e 2e38 3cbe
00000220: 8e4a 89bf 3b91 adbd 2b38 9f3d b263 d1bd
00000230: 2343 1a3e 449b 29be cafe a13d 89fe 8dbe
00000240: 905b e23b 261a 8e3d 0d19 87be fec6 2dbf
00000250: 449e 4d3e d4cc ce3d a1b3 563e 64e2 173e
00000260: 8143 08bf ac07 fdbd ef56 28be 36b1 e3be
00000270: adf7 56be 82ef 853d 2495 a1be d421 79be
00000280: 9264 68be 55d0 77be 0ebb 2ebf 799a 80be
00000290: 3ba4 293e e7a3 16bc 7c3b f4be e5f4 56bd
000002a0: da10 23be e5af 48be 1334 b5be 35ff 94be
000002b0: 0f02 e13d 2a39 c0be 1d3f ab3a 6ad4 133e
000002c0: 533c 5cbe f111 2dbe 4fbe 083e a5ef b5bd
000002d0: fe2a 9dbe 21d6 93be 5710 53be 5cbf 6e3d
000002e0: ab1f ecbe 40de 3fbf 3633 4c3e 4b8f adbe
000002f0: 9387 a73c 5dd3 37be 4300 3dbf 55a4 383c
00000300: 8396 88be 66eb 5dbe d130 393e 1ae6 82bd
00000310: ca36 6abb 9d40 2e3e 84ea 423d 1ae6 8f3d
00000320: c7bc debe c984 f43c 7e31 5abe 60d7 5b3d
00000330: 1303 6b3d a3c2 10be 3eff 1cbe 8448 03bf
00000340: a51b 423d ca3a 313e 7a69 0f3e 4682 bcbe
00000350: 1630 663d 07e5 f2be 1860 bebd 3d68 1ebf
00000360: 64b6 01bf 03a4 58be a793 dbbe bca0 b6be
00000370: f928 f13d 595b 5ebe ddfa a8be 4e71 cf3d
00000380: b212 1fbd fbdc 4bbe b075 c3bd 5c8a 71be
00000390: 284f 33be 7d72 343e 4a46 94be 6676 4bbe
000003a0: 7fa9 3fbe 6f67 653e 143b f3be b06b 8dbd
000003b0: d7c3 363d 38de 2b3e d25e b3bd e954 113e
000003c0: 2b5d 4ebd 0e34 b9be 225b 073d ae2b 8fbe
000003d0: aaca ac3c 5c3c b63d 54bf 4c3d 6294 d63d
000003e0: 6dc9 08bd 791f a2be e5f8 07bf d6c0 eabe
000003f0: f9f6 cdbd b461 623e 0137 e0be 6c76 b2be
0.1087401 0.088365994 -0.45817852 -0.13484855 0.10887819 -0.2857946 0.08014623 -0.545995
0.08243177 0.043163814 -0.26339605 -0.5616318 0.06366837 -0.32380033 0.0031885682 -0.16264004
-0.12861472 0.051602375 0.053946923 -0.11179815 -0.33566537 -0.500361 -0.18469687 0.23865502
-0.29458293 -0.32434148 0.086772315 -0.6122133 0.12963212 -0.5807799 0.09527186 0.06869901
0.23274434 -0.21288426 -0.5737107 0.10570801 -0.34309545 -0.04987037 -0.10121267 -0.08517832
-0.12888989 0.13290855 0.08932488 0.11776418 -0.24655367 -0.22489053 -0.23432769 -0.50499403
-0.2544899 -0.3984353 -0.749973 -0.26080793 -0.5154913 -0.29044715 0.11979325 -0.2546643
-0.17114064 0.13677604 -0.009224084 0.2009546 0.10993579 -0.2730136 -0.048049256 -0.045748502
-0.13613725 0.13917956 -0.5208242 -0.26432064 -0.17544514 0.19501461 0.0043229996 -0.26324108
-0.2212905 -0.050148353 -0.38388672 0.108268455 -0.42399633 0.22615199 -0.096410796 0.13822436
-0.32567117 -0.15939873 0.16467252 -0.40026385 -0.154873 0.114710025 -0.37817615 -0.45647153
0.1898074 -0.13326056 -0.5979596 -0.034570374 -0.12591961 -0.59321815 -0.20805067 0.00013731487
-0.136588 -0.1952236 -0.077642955 0.032289002 -0.45313567 -0.30381167 -0.16655931 0.09567033
-0.32533565 0.06254855 -0.5383958 0.029761916 -0.23106964 -0.4457557 -0.31807226 -0.070009
-0.5521484 -0.16107117 0.16668656 0.26135394 -0.4756956 0.11746526 0.2246456 0.10070356
-0.64699674 0.16326755 -0.08764286 -0.29589096 0.16687492 -0.55487204 0.23287816 -0.560743
-0.059935175 -0.5176534 -0.33380497 -0.18141899 0.16954447 0.09329691 0.16892166 -0.18380806
-1.0725877 -0.08474966 0.07774385 -0.102240935 0.15064673 -0.16563135 0.07909925 -0.27733257
0.0069078878 0.06938581 -0.263863 -0.67881763 0.20079905 0.100976616 0.2096696 0.14832455
-0.53228 -0.12354979 -0.16439413 -0.4447114 -0.20992918 0.06539823 -0.31559098 -0.2432931
-0.22694615 -0.24200566 -0.6825417 -0.25117853 0.16566555 -0.009194351 -0.47701633 -0.052479643
-0.15924397 -0.19598348 -0.35391292 -0.29100958 0.10986721 -0.37543613 0.0013065074 0.14436498
-0.21507387 -0.16901375 0.13353847 -0.08883599 -0.30696863 -0.28874305 -0.20611702 0.058287963
-0.4611791 -0.749485 0.1994141 -0.33898386 0.020450389 -0.17951722 -0.73828524 0.011269649
-0.2667733 -0.21671829 0.18085028 -0.06391545 -0.0035738223 0.17016836 0.047586933 0.0702631
-0.435034 0.029848473 -0.21307942 0.053672194 0.05737598 -0.14136748 -0.15331742 -0.51282525
0.047389645 0.17307582 0.1400508 -0.3681814 0.056198202 -0.4744036 -0.09295672 -0.61877805
-0.5066893 -0.21156316 -0.42886087 -0.35669506 0.11775393 -0.21714534 -0.33003893 0.10129033
-0.03883619 -0.19908516 -0.095439315 -0.23587936 -0.17510664 0.17621799 -0.28959876 -0.19869384
-0.18717001 0.22402738 -0.4750601 -0.069053054 0.04462036 0.16783988 -0.0875832 0.14192547
-0.05038182 -0.36172527 0.033045895 -0.27963012 0.021092732 0.088982314 0.049987152 0.104775205
-0.03339522 -0.31664637 -0.5311416 -0.45850247 -0.10056872 0.22107583 -0.43791965 -0.34855974

arith.constant5 f4 [128, 512]
00000000: 5ff0 86bc f8bb 86be de9f 883c 7849 caba
00000010: be59 943c 9725 40be dc92 4a3d d866 6e3d
00000020: 7a7c 9ebc ee8b 52be 586f 3cbd b35d 8dbd
00000030: ea5a bcbe 8267 bebd e7a2 8b3d 9e59 8dbd
00000040: 11c5 493e eb67 51be 85c5 2ebe 83f1 c9bd
00000050: 0ec9 36bd fe3c ab3d 9c6d 14be ae78 a9bd
00000060: a9ce ec3d 4f86 2bbd 1eb3 773c 904c dabd
00000070: 81ea 1ebd 4b38 63be 4c9f 3dbd 8ba2 ae3d
00000080: 1ff3 46bd 7f6f 363e b036 363e ef09 0ebe
00000090: 5e30 85bc 9fef 323e 3376 163e a0d0 8cbd
000000a0: 657c f9bd 4550 c0be 79ae f43c 6044 3b3e
000000b0: 15a4 b63d e82d 323e 014c 37be 21ca a0bd
000000c0: 82d6 1ebe d214 203e 9d66 053a 30f2 033e
000000d0: ccd0 a83e cd03 a5bd b15e efbd abbb 59bd
000000e0: 57ad 46bb 4d83 fbbd 1d98 0f3e 86f6 9abd
000000f0: acf2 bbbd fcad c2be f1ce 83ba 023a 943d
00000100: 39be 37bd 7f54 bdbd cc53 12bd 2f8a ba3d
00000110: aba7 493d 4992 063d 830f 7d3d 70da 7cbe
00000120: 3fd1 823c eb02 88bd 06c8 6cbe 3a21 593c
00000130: ed18 1c3c a66d af3d a67d 9fbd b5f3 843e
00000140: c7b5 e33d 8a5c 263e bb61 7abd aad6 643e
00000150: c391 8bbd 15df 27bd e375 8cbe eedf 7abd
00000160: 1b3c e2bd 3fc9 05be c003 c4bd 3e68 763e
00000170: c6b9 923d bbca e33d 5811 7fbd 2383 923d
00000180: cf15 a53d d3b7 a1bd 7604 cdbd a078 883d
00000190: c356 933d a72a dcbd 5e51 48bc f478 4bbd
000001a0: a657 a43d 7ca0 563e ad97 14be 921f 843c
000001b0: 1510 1e3e cb14 933d 9e5d 6dbd 354d 9f3c
000001c0: 6847 2cbd df96 e53c c62a 05be 7565 81be
000001d0: ca30 b5bd 7792 f8bd 8bf1 0f3d 53fd 1fbd
000001e0: fac9 93bc 50f4 4abd cce5 5b3d fb0f a4bd
000001f0: d01c 60bd ccc2 13bd e74d a63c 4bfd fb3d
00000200: 34d5 b4bd 73fd 1bbe 7fce bf3c 990b 1d3e
00000210: edc5 39be 8936 0fbe 51ae 27bd 2adb 813d
00000220: a585 0bbd 031b af3c 9325 963c 2821 ba39
00000230: c9e0 9abd a396 5cbd e54c a1bd 894f 8a3e
00000240: aa12 4f3d 6db7 6dbd 9298 0cbe d1ce 6f3e
00000250: 895a 80bd c25e 14be 2a9b 703c fd35 473d
00000260: e9e3 283c 34d6 8ebd 0dbf c3bb f353 b4bc
00000270: a4cb 2bbe 4606 ac3d dbb1 843c a65e 8b3e
00000280: e802 a3be f1ca 0f3e d30a 843d 164f 12be
00000290: aa80 f0bb 4e4e c4bd 7011 303e 9463 dabe
000002a0: 5c61 c0bb 1bf6 573d d51a 21bd 1eb1 b13d
000002b0: 6818 653b 5ad7 cdbe c5de 1abe 1b5b d13d
000002c0: 2a37 57be a07c ed3d 3e36 493e dd66 123c
000002d0: f538 153c 4874 dcbc a9a5 853d 663f 36bd
000002e0: d40c c7bd e0f5 ddbc 2223 3bbe 3a68 0bbe
000002f0: 9c9d ba3d b979 c03d 870d a33d 3a55 04be
00000300: c1a5 923c 6058 ccbd 9ef8 323c de15 3d3d
00000310: 776e 383e a7c2 e73c 0039 533d 083a 6ebd
00000320: 165c 3e3e f8fb 24be 4f02 c4be 4119 853c
00000330: 080b 03bd 6153 d7bd f322 193c d06f a03d
00000340: 2be6 96bc 98f1 c43c 71b8 9fbc c239 813d
00000350: 400d 9ebd e07f 27bd ee50 683c 8b2e 133e
00000360: d76c 15bd 9d11 44be b1af ca3d b740 ae3d
00000370: 401b 64bc 0d15 003d 2338 613e 8186 b4bd
00000380: 756e 563d 5d1c a73d fab0 0b3d 006f c53c
00000390: 66e6 893d df82 d8bd 51fb aa3d c651 a9bd
000003a0: f2c2 133e b8f9 b2bd 4125 babe e57a 68be
000003b0: ba96 54be cf4b fd3d 7bc7 2cbe 45de 12be
000003c0: 662e 8f3d 7148 e0bd 3e54 d1bd 51e6 a13d
000003d0: ed7f 3ebe b197 0cbf 703f d4be 52b8 b53d
000003e0: 94f2 a63e 35f0 f3bd b536 b6bc 2820 9dbd
000003f0: dd94 9b3c f935 073d 5ae5 a1bd d634 b23d
-0.01647204 -0.26315284 0.016677793 -0.0015433272 0.018109199 -0.1876434 0.049456462 0.05820355
-0.019346464 -0.20561191 -0.046004623 -0.06902637 -0.36788112 -0.09297086 0.068181805 -0.06901859
0.19704081 -0.20449798 -0.17067535 -0.09860518 -0.044625334 0.08361243 -0.14494938 -0.08274971
0.11562855 -0.041876134 0.015118388 -0.106591344 -0.03879786 -0.22189443 -0.046294495 0.08527096
-0.048571702 0.1781597 0.17794299 -0.13870977 -0.016258415 0.1747422 0.14693527 -0.068757296
-0.121819295 -0.3756124 0.029868351 0.18287802 0.08918015 0.17400324 -0.17900087 -0.07851053
-0.15511516 0.15632942 0.0005088838 0.12885356 0.329718 -0.080573656 -0.11687983 -0.05315749
-0.003031572 -0.12280903 0.1402287 -0.07566552 -0.09177145 -0.38023365 -0.001005618 0.072376266
-0.044859145 -0.09244632 -0.035724446 0.09108388 0.049232166 0.032854352 0.06178237 -0.24692702
0.015968917 -0.066411816 -0.23123178 0.013252551 0.009527427 0.08565836 -0.077876374 0.25967184
0.11118656 0.16246238 -0.06112836 0.22347513 -0.06814911 -0.040984232 -0.2743369 -0.061248712
-0.110466205 -0.1306505 -0.09571028 0.24063203 0.0716434 0.11122652 -0.0622724 0.071539186
0.080608 -0.0789639 -0.100106165 0.066636324 0.07194283 -0.10750323 -0.012226431 -0.049675897
0.0802453 0.20959657 -0.14510985 0.016128335 0.15435822 0.071817 -0.05795061 0.019445995
-0.042060286 0.028026043 -0.13004598 -0.25272718 -0.088471964 -0.12137311 0.035142463 -0.03905995
-0.018040646 -0.0495494 0.05368595 -0.080108605 -0.054714978 -0.036074445 0.020300819 0.12304171
-0.08829728 -0.15233402 0.023413895 0.15336455 -0.18141909 -0.13985647 -0.040937725 0.0634063
-0.034063 0.021375185 0.018328464 0.00035501388 -0.075624056 -0.053854596 -0.078759946 0.27013806
0.05055491 -0.058036257 -0.13730076 0.23418738 -0.06267268 -0.14489272 0.0146854315 0.04863547
0.010308244 -0.0697445 -0.0059737028 -0.022012686 -0.16776901 0.08399634 0.01619809 0.2722065
-0.31838155 0.1404226 0.06447377 -0.14287981 -0.0073395567 -0.09585248 0.17194152 -0.42654097
-0.005870981 0.05272494 -0.03933223 0.086763605 0.0034957174 -0.40203363 -0.15124042 0.10222455
-0.21017137 0.11596036 0.19649598 0.008935657 0.009107818 -0.026910916 0.06525738 -0.044494055
-0.09719244 -0.027094781 -0.18275121 -0.13613978 0.09112093 0.09398217 0.079615645 -0.12923136
0.017901303 -0.09977794 0.010923533 0.046163432 0.18010889 0.02829106 0.05156803 -0.05816081
0.18589815 -0.16111743 -0.3828301 0.016247394 -0.031992942 -0.1051395 0.009346711 0.078338265
-0.0184203 0.024040982 -0.019497128 0.063098446 -0.07717371 -0.040893435 0.014179451 0.14373223
-0.03648075 -0.19147344 0.09896792 0.08508437 -0.0139225125 0.031270076 0.2199407 -0.08814717
0.052351434 0.08159707 0.034104325 0.02410078 0.06733398 -0.10571837 0.08348716 -0.0826755
0.14429834 -0.08739036 -0.36356547 -0.2270313 -0.20760623 0.12367975 -0.16872971 -0.14342602
0.06991272 -0.10951317 -0.10221146 0.079052575 -0.18603487 -0.5491896 -0.4145465 0.08873047
0.32606947 -0.1191105 -0.022242883 -0.07672149 0.018991882 0.033010457 -0.079050735 0.08701484

arith.constant6 f4 [128]
00000000: 712e b5bc f482 07bd 1bb6 cbbd 529f 1ebd
00000010: cb88 283e 4ee7 c23d 636e ef3d 01c1 9a3c
00000020: 4e6e 80bd f9b0 833c 83b4 723b 59c5 9d3d
00000030: 974d c43d 06de 173d 4d0d 723d 6a72 8e3c
00000040: cc6e 483c 566c e83b b8c4 0cbe cb5a 41bd
00000050: 958c b83d e322 05bd 4576 003e 581a 553d
00000060: 24e4 7abd b213 62bb 601c 14bd 01bb 2d3d
00000070: 72da 4dbb d37b 343d 8242 92bb 75b3 96bd
00000080: 23e1 733d ff9d 893c 7f75 96bd bb55 2ebd
00000090: 8760 713d d4ba 2a3c 2605 1dbd 5cad f6bc
000000a0: 914a d6ba 531d 3a3c 1a01 02be 5ff9 b6bc
000000b0: 1dc1 0f3e 0090 ccbc b022 133a e8e8 04bd
000000c0: 40c2 fabd 8afe c2bd 55b9 063c d19f b8bd
000000d0: f4fb 483d 20df 593c 9e01 6e3d 70c8 afbc
000000e0: 94a7 9dbd bb6b 04bd 8b8e 8e3d 078c 1f3d
000000f0: c77a a33d fd3a 40bd 3c48 6fbd 6aca 153d
00000100: 7739 54bc b402 7abc cf27 f93d 9562 fdbc
00000110: ef4c 903c 96cb 823d 7bab 9d3d 3fe8 023c
00000120: 8085 ceba 0252 9fbc d798 b9bb 1540 1cbd
00000130: 96cb 5b3d 0e98 883c 74df 05bd 2e8c 2dbd
00000140: aa4f 57ba 4a75 803c ef77 db3d b76e e0bd
00000150: 90dc 103c f4e3 8abb 81ac 433c 95cd 8a3c
00000160: 7262 15bd 3b44 88bd f88b 7abd 3aa7 5f3d
00000170: 4c5c de3d f706 4cbd 4be8 afbd 06e2 ce3d
00000180: f0d1 27be d4e9 46bd ed99 8abc 4f46 8ebc
00000190: e2dd a4bd b449 043c 67c2 23bd 30d4 8f3d
000001a0: 45f8 41bd dd0c 8b3d b4f1 273d fbe3 04bd
000001b0: 70a7 4a3d 5e37 94bc 4831 5bbd 939d 85bd
000001c0: acda 27bd cfa7 60bd 2eaf 6a3d b435 e0bd
000001d0: 831b 093d f9eb b83d ab75 a83d 8f09 82bd
000001e0: 73bc babb 9106 25bd 4092 bd3c 348c b0bd
000001f0: c5f7 13bb 6224 9cbc 5e90 5ebd 82b5 2b3d
-0.022116872 -0.03308387 -0.09946843 -0.03872616 0.16458432 0.09516774 0.116909765 0.01889086
-0.06271039 0.016075598 0.0037033863 0.07703657 0.095851116 0.037076972 0.059094716 0.017388541
0.012233447 0.007092993 -0.13746917 -0.047205728 0.09011189 -0.032503974 0.12545116 0.052027076
-0.061252728 -0.0034496603 -0.036159873 0.04241467 -0.003141072 0.0440634 -0.0044634948 -0.073584475
0.05954088 0.016798971 -0.07346629 -0.042562228 0.058929946 0.01042052 -0.038334988 -0.030111961
-0.0016349127 0.0113595305 -0.12695733 -0.022335706 0.1403851 -0.024971008 0.0005612774 -0.03244868
-0.122440815 -0.09521206 0.008222898 -0.090148576 0.049068406 0.013297826 0.05810701 -0.02145788
-0.076979786 -0.032329302 0.06960782 0.0389519 0.07982402 -0.046931256 -0.058418497 0.03656999
-0.012953154 -0.015259434 0.12165796 -0.030930797 0.01761481 0.06386487 0.07698723 0.007989942
-0.0015756339 -0.019448284 -0.005663972 -0.03814705 0.05366095 0.016674068 -0.032683805 -0.042370014
-0.000821347 0.015680928 0.10716235 -0.10958617 0.008841649 -0.0042386 0.011942984 0.016943732
-0.036470838 -0.06653639 -0.06116864 0.05460284 0.10857448 -0.04981133 -0.08589228 0.10101704
-0.16388679 -0.04856284 -0.0169191 -0.01736751 -0.08050133 0.008074213 -0.03998032 0.070228934
-0.04735591 0.06789563 0.04100199 -0.03244398 0.049476087 -0.018092807 -0.053513795 -0.065241955
-0.040980026 -0.054847535 0.05729597 -0.10947743 0.033473503 0.09029383 0.082255684 -0.063494794
-0.0056987344 -0.040289465 0.023141026 -0.086204916 -0.0022578102 -0.019060317 -0.054336898 0.041921146

arith.constant7 f4 [35]
00000000: 626d d43b a62d 343e c197 bcbc c134 273d
00000010: 6ba6 223d 5f13 35bd 69d0 dfbd 0c19 a9bc
00000020: 8500 2e3e df2e a0bc 57b5 143e eb83 9b3d
00000030: 2a29 9d3c 4df2 26be 18a1 983b d5d4 f73d
00000040: 5c13 12be 5921 123d 1d48 7e3d 19af a73c
00000050: 6779 84be d604 40bc dae9 82be 8703 cdbb
00000060: de08 52bb e974 cc3d e8b4 73be f62d b9bc
00000070: d1c9 b8bd bbe6 b83d 551a cdbd 6a49 9cbd
00000080: db6e f63d f257 0bbc bfc2 bd3c
0.006482766 0.17595538 -0.02302158 0.040821794 0.03970949 -0.044207927 -0.10928423 -0.020641826
0.16992386 -0.0195536 0.145223 0.07593521 0.019184668 -0.16303368 0.0046578757 0.12101141
-0.14265198 0.035676334 0.06208049 0.020469235 -0.25873873 -0.011719903 -0.2556904 -0.006256524
-0.0032048742 0.09983236 -0.23799479 -0.022604924 -0.090228684 0.09028383 -0.10014788 -0.0763119
0.12032863 -0.0085048545 0.023164151

sequential_1/conv2d_1/convolution f4 [32, 3, 3, 1]
00000000: a00d 593c 2696 68bd ab0d a6bd 197b c5be
00000010: a307 eebd 5aa0 ba3d d7b2 c9bd 0eea 833e
00000020: 0ec8 9d3e b8fc 3abd fe06 4d3d 7967 23be
00000030: e9ac cbbd f69a 2f3c 3e95 a5bd 0b46 1b3e
00000040: f261 a6bc e11f b3bc 8867 24be ae74 40be
00000050: d5c9 0e3e 9371 253e c07f a0be e293 e1be
00000060: ce96 db3e df54 cf3d d5aa b6bd 1345 8ebe
00000070: 9ec1 04bf 424e bd3d 4c54 f7bd c17f 7e3e
00000080: 1fd2 663e 5c03 46bd 7b3b 97bd 3207 243c
00000090: fe6b a1be ffc0 79bd 5645 193e f1e6 18be
000000a0: b314 143e c785 0ebd 2cc9 023e 1475 223e
000000b0: 09e3 a0bd 104d 61bc 0c2e d8bd a2a8 93be
000000c0: f991 013d 205c bebc 697f 233e 5b39 68bd
000000d0: 878f df3d 7ca3 053e 582e 033c c77c 333d
000000e0: 98a3 93bc 0281 8c3e e9f4 773d 313f 59be
000000f0: e845 353e 17b9 12bd ff0a acbe 7bcd a63d
00000100: 8f53 013e e2c8 77bd 05b0 30bc a6ba a63d
00000110: 1981 303e 7c57 b03d 24c5 e33d 5eea 833c
00000120: 50d7 07bb c17a 3f3e da2e 053c 665f 30be
00000130: c206 c7bc c7bc 4e3c 755f bfbd faba e9bd
00000140: 1f99 4cbe da4b b33c 84cd 003d 7b58 53be
00000150: 565c 8cbd 3e74 f3bd 152c bbbd db62 0abe
00000160: 0917 b1bd 5950 8cbd 724f e13d 3190 d03d
00000170: 736d 473e 116f 5b3e 64ec 753d ea83 113d
00000180: de80 85be 091b 5ebe 5fa2 74be f5ee fdbd
00000190: fae9 03be 336a 633e 7845 6cbe 96e7 0ebd
000001a0: 8575 823e 66b3 85be a420 993a 79e3 b63d
000001b0: ecfd 243e c4e6 333e 7531 82be 1db8 17bd
000001c0: ba16 1fbe 3a04 e4bc 89b3 35bd f78e e23d
000001d0: f00a 5a3e 0aab 3a3e 1c2e d33b 3ea8 71be
000001e0: eb91 d83d e2a1 aebd 7f4b 21be 904a 8c3e
000001f0: 69d3 373d 02db b03a cabf 573e d6b4 e93d
00000200: 25d3 e33d 59fb b8bc 83e4 59bd 84a6 fcbc
00000210: 6526 8cbe 1d9b 01be a152 0f3e 4d05 e03b
00000220: 17ef d7bc 2978 a8bc 8145 f4bd 0181 cfbd
00000230: d416 14be 6846 05be a975 0cbe 91f3 c1bc
00000240: f223 08bd 0ca7 633e 0b77 6a3e 14c1 67bd
00000250: 9009 833d ef5d dd3d 58a4 c9be 127a 44be
00000260: fe53 0d3e 479f 76bc bc6e 173e 24ac 913c
00000270: 79b1 7fbe 2241 0abe 9ae7 f1bd 3757 89ba
00000280: 76e3 993b 6786 53be a5db f43d 4f34 093e
00000290: d672 e13d 997c d13d 1b3f 233e a594 60bd
000002a0: 9f8e 3bbe 49df 42be 3e8e 97be 0bf3 503d
000002b0: 963f a6be 9ab8 2b3d 391e 59be c8df bbbc
000002c0: 0c7a cc3d e4be 48be fec1 1f3e 9f6b df3d
000002d0: da54 123d 8611 423d a110 59bc 2852 d0bd
000002e0: 165b ad3d d01e 903c 78cc e43d 6630 c1bc
000002f0: 6272 973d 6776 533e 3792 443e d306 27be
00000300: a6ca 6a3e be5e d1bd c301 9fbe d6b3 883c
00000310: a941 c7be 6b29 74bd 0471 afbd 7ec0 e0bc
00000320: fa22 fcbd 87f0 313e 06d3 713d 41c0 193e
00000330: 7b1f 2cbe 0818 11be b3ea 9e3d 0b63 103e
00000340: 0e94 53be e4f8 b3be 4cee 833d 01c8 3b3e
00000350: 195d 163e 9e22 3c3d 88ec 413e 5eb9 a8bd
00000360: ac06 033e 547b a13c 7220 533e 5755 62be
00000370: e37b 15be 1a95 ba3d 2603 15be c4f1 f6bd
00000380: 5625 f4bd 8e70 20be bb57 b8be 7c3c 64be
00000390: c48d 383e 2b9c 3f3d 5811 f4bd fb83 833e
000003a0: 4437 eb3c d5c4 803b 9029 3c3b 0688 5abe
000003b0: d222 9a3d cf2d 30be be07 313d 1858 683e
000003c0: fc6b 5ebd 460f e23d e9d0 bd3d 16fa 47be
000003d0: 2925 2bbe c550 b2bb 9567 f8bd a0f4 4c3e
000003e0: 23b2 643c 767b ee3d 4000 fc3d cc02 f33d
000003f0: 07b1 4f3b c726 763d 6df8 2d3d 84c6 33be
0.013247877 -0.056783818 -0.08108076 -0.3857048 -0.1162255 0.09112616 -0.09848564 0.25764507
0.30816692 -0.045651168 0.050055496 -0.1595744 -0.09945089 0.010718098 -0.08085106 0.15163438
-0.020310376 -0.021865787 -0.16055119 -0.1879451 0.1394418 0.16156606 -0.31347466 -0.44058138
0.42888492 0.1012361 -0.089193024 -0.27787074 -0.51857936 0.09243442 -0.12076625 0.24853422
0.22541092 -0.048343047 -0.07384392 0.010011481 -0.31527704 -0.06097507 0.14967856 -0.14931847
0.14461021 -0.03479555 0.12772053 0.15864974 -0.078558035 -0.013751283 -0.10555658 -0.28839594
0.03163335 -0.023237288 0.15966572 -0.056695323 0.109160475 0.13050646 0.008006655 0.04382017
-0.018022344 0.27442175 0.0605363 -0.21215512 0.17702448 -0.035821047 -0.3360214 0.08144661
0.12629531 -0.06049431 -0.010784154 0.08141069 0.17236747 0.08610436 0.11121586 0.016102966
-0.0020727701 0.1869917 0.008128846 -0.17223892 -0.024295215 0.01261825 -0.09344379 -0.11412616
-0.19980286 0.021886755 0.031445995 -0.20639221 -0.06853549 -0.11887406 -0.09139267 -0.13514273
-0.08646972 -0.068512626 0.11001481 0.10183752 0.19475345 0.21429087 0.060039893 0.035526194
-0.2607488 -0.2169 -0.23890065 -0.12399093 -0.12882224 0.2220848 -0.23073375 -0.034888826
0.25480285 -0.26113433 0.0011682701 0.08930106 0.16112489 0.17568499 -0.25428358 -0.03704082
-0.15536013 -0.027834047 -0.04436067 0.11062425 0.21293235 0.18229309 0.0064447057 -0.23599336
0.10574707 -0.085269704 -0.15751456 0.27400637 0.04487935 0.0013493004 0.21069255 0.11411445
0.11124257 -0.02258079 -0.05319644 -0.03084112 -0.27373043 -0.12656827 0.13996364 0.0068365694
-0.026359124 -0.02056511 -0.11927319 -0.101320274 -0.14461833 -0.13015139 -0.13716759 -0.023675712
-0.033237405 0.22231692 0.22896974 -0.056580618 0.06398308 0.10808932 -0.39383197 -0.19187191
0.13801572 -0.015052623 0.14788336 0.017782278 -0.24970044 -0.13501409 -0.118117526 -0.0010478263
0.004696305 -0.20656739 0.11955956 0.1339886 0.11008231 0.10228843 0.15942042 -0.05482926
-0.18316124 -0.19030489 -0.2960071 0.051013034 -0.32470387 0.041924097 -0.21202935 -0.022933856
0.09984216 -0.19604069 0.15601346 0.10909199 0.035725452 0.047379993 -0.013248594 -0.1017192
0.08464639 0.017592818 0.11171812 -0.023582648 0.07394864 0.20650636 0.19196402 -0.16311197
0.22928867 -0.10223149 -0.31056032 0.016687315 -0.38917282 -0.05960981 -0.08566478 -0.027435537
-0.12311359 0.1737691 0.05903914 0.15014745 -0.16808884 -0.14169323 0.07759609 0.14100282
-0.20661947 -0.35150826 0.06441936 0.18338014 0.14683951 0.04593145 0.18937886 -0.08238481
0.12795514 0.019712128 0.20617846 -0.22102867 -0.1459804 0.0911047 -0.14551982 -0.12057832
-0.11921184 -0.15667936 -0.36004433 -0.22288698 0.1802283 0.046779793 -0.119173706 0.2568663
0.028712876 0.003929714 0.0028711297 -0.21340951 0.07526173 -0.17204975 0.043220274 0.22689855
-0.0543022 0.110380694 0.09268362 -0.19528994 -0.16713394 -0.0054417574 -0.12129132 0.20015192
0.013958487 0.11644642 0.12304735 0.11865768 0.003169121 0.060095575 0.042473245 -0.17556196

sequential_1/conv2d_1/Relu;sequential_1/conv2d_1/BiasAdd;sequential_1/conv2d_1/convolution; f4 [32]
00000000: 09ea f4bc c881 2fbe 911f 02bd 643b 24be
00000010: c5c7 10be 57c9 02be 6f2a 3dbd 905b 96be
00000020: 37a5 823c c5d0 463e 24c6 83bc 8c35 3abd
00000030: f938 36be 3b97 10be 8551 babd ba96 ddbb
00000040: 193c 2bbd 336b ad3d e56e 1abd 2891 71be
00000050: 68bd 8ebe b205 98bc 27c1 3cbe 02f8 48be
00000060: 9c1b a6bd efe1 a2bc f76c 0bbe e4ed 5cbd
00000070: 21a2 d0bd 0452 9fbc 0530 2ebd d34f a2bd
-0.029896753 -0.17139351 -0.031768385 -0.1603828 -0.14138706 -0.12772118 -0.046183046 -0.29366732
0.015947921 0.19415577 -0.016085692 -0.045461223 -0.17795171 -0.1412019 -0.0909758 -0.006762353
-0.04180536 0.08467712 -0.037703414 -0.23590529 -0.2787888 -0.018557403 -0.18433057 -0.19625857
-0.08110735 -0.019883124 -0.13615786 -0.053937808 -0.10187174 -0.019448288 -0.042526264 -0.079253815
